Neural Network Tools for STM32AI v1.6.0 (STM.ai v7.1.0-RC3)
Created date          : 2022-02-02 11:54:10
Parameters            : generate --name network -m D:/Flash/Documents/IESE5/Projet5A S10/yoloface.tflite --type tflite --compression 1 --verbosity 1 --workspace C:\Users\Flash\AppData\Local\Temp\mxAI_workspace1558345842480000274790781716940289 --output C:\Users\Flash\.stm32cubemx\network_output --allocate-inputs

Exec/report summary (generate)
------------------------------------------------------------------------------------------------------------------------
model file            : D:\Flash\Documents\IESE5\Projet5A S10\yoloface.tflite
type                  : tflite
c_name                : network
compression           : None
allocator strategy    : ['allocate-inputs']
workspace dir         : C:\Users\Flash\AppData\Local\Temp\mxAI_workspace1558345842480000274790781716940289
output dir            : C:\Users\Flash\.stm32cubemx\network_output
model_name            : yoloface
model_hash            : 68dd343f8c4694d2c81577d480b0e349
input 1/1             : 'Input'
                        9408 items, 36.75 KiB, ai_float, float, (1,56,56,3), domain:activations/**default**
output 1/1            : 'conv2d_47'
                        882 items, 3.45 KiB, ai_float, float, (1,7,7,18), domain:user/
params #              : 9,670 items (37.77 KiB)
macc                  : 1,480,736
weights (ro)          : 38,680 B (37.77 KiB) (1 segment)
activations (rw)      : 94,200 B (91.99 KiB) (1 segment) *
ram (total)           : 97,728 B (95.44 KiB) = 94,200 + 0 + 3,528

(*) input buffers can be used from the activations buffer

Model name - yoloface ['Input'] ['conv2d_47']
---------------------------------------------------------------------------------------------------------------------------------
id   layer (type)           oshape         param/size    macc      connected to   |   c_size   c_macc             c_type        
---------------------------------------------------------------------------------------------------------------------------------
0    Input (Input)          (1,56,56,3)                                           |                              
     conv2d_0 (Conv2D)      (1,28,28,8)    224/896       169,352   Input          |            +18,816(+11.1%)    conv2d()[0]   
---------------------------------------------------------------------------------------------------------------------------------
1    nl_1 (Nonlinearity)    (1,28,28,8)                  6,272     conv2d_0       |            -6,272(-100.0%)   
---------------------------------------------------------------------------------------------------------------------------------
2    conv2d_2 (Conv2D)      (1,28,28,8)    80/320        56,456    nl_1           |            +18,816(+33.3%)    conv2d()[1]   
---------------------------------------------------------------------------------------------------------------------------------
3    nl_3 (Nonlinearity)    (1,28,28,8)                  6,272     conv2d_2       |            -6,272(-100.0%)   
---------------------------------------------------------------------------------------------------------------------------------
4    conv2d_4 (Conv2D)      (1,28,28,4)    36/144        25,092    nl_3           |                               conv2d()[2]   
---------------------------------------------------------------------------------------------------------------------------------
5    conv2d_5 (Conv2D)      (1,28,28,18)   90/360        56,466    conv2d_4       |            +42,336(+75.0%)    conv2d()[3]   
---------------------------------------------------------------------------------------------------------------------------------
6    nl_6 (Nonlinearity)    (1,28,28,18)                 14,112    conv2d_5       |            -14,112(-100.0%)  
---------------------------------------------------------------------------------------------------------------------------------
7    pool_7 (Pool)          (1,14,14,18)                 225,792   nl_6           |                               pool()[11]    
---------------------------------------------------------------------------------------------------------------------------------
8    conv2d_8 (Conv2D)      (1,14,14,18)   180/720       31,770    nl_6           |            +10,584(+33.3%)    conv2d()[4]   
---------------------------------------------------------------------------------------------------------------------------------
9    nl_9 (Nonlinearity)    (1,14,14,18)                 3,528     conv2d_8       |            -3,528(-100.0%)   
---------------------------------------------------------------------------------------------------------------------------------
10   conv2d_10 (Conv2D)     (1,14,14,6)    114/456       21,174    nl_9           |                               conv2d()[5]   
---------------------------------------------------------------------------------------------------------------------------------
11   conv2d_11 (Conv2D)     (1,14,14,36)   252/1,008     42,372    conv2d_10      |            +21,168(+50.0%)    conv2d()[6]   
---------------------------------------------------------------------------------------------------------------------------------
12   nl_12 (Nonlinearity)   (1,14,14,36)                 7,056     conv2d_11      |            -7,056(-100.0%)   
---------------------------------------------------------------------------------------------------------------------------------
13   conv2d_13 (Conv2D)     (1,14,14,36)   360/1,440     63,540    nl_12          |            +21,168(+33.3%)    conv2d()[7]   
---------------------------------------------------------------------------------------------------------------------------------
14   nl_14 (Nonlinearity)   (1,14,14,36)                 7,056     conv2d_13      |            -7,056(-100.0%)   
---------------------------------------------------------------------------------------------------------------------------------
15   conv2d_15 (Conv2D)     (1,14,14,6)    222/888       42,342    nl_14          |                               conv2d()[8]   
---------------------------------------------------------------------------------------------------------------------------------
16   eltwise_16 (Eltwise)   (1,14,14,6)                  1,176     conv2d_10      |                               eltwise()[9]  
                                                                   conv2d_15      |  
---------------------------------------------------------------------------------------------------------------------------------
17   conv2d_17 (Conv2D)     (1,14,14,18)   126/504       21,186    eltwise_16     |            +10,584(+50.0%)    conv2d()[10]  
---------------------------------------------------------------------------------------------------------------------------------
18   nl_18 (Nonlinearity)   (1,14,14,18)                 3,528     conv2d_17      |            -3,528(-100.0%)   
---------------------------------------------------------------------------------------------------------------------------------
19   concat_19 (Concat)     (1,14,14,36)                           pool_7         |                               concat()[12]  
                                                                   nl_18          |  
---------------------------------------------------------------------------------------------------------------------------------
20   conv2d_20 (Conv2D)     (1,14,14,24)   888/3,552     169,368   concat_19      |            +14,112(+8.3%)     conv2d()[13]  
---------------------------------------------------------------------------------------------------------------------------------
21   nl_21 (Nonlinearity)   (1,14,14,24)                 4,704     conv2d_20      |            -4,704(-100.0%)   
---------------------------------------------------------------------------------------------------------------------------------
22   pool_22 (Pool)         (1,7,7,24)                   18,816    nl_21          |                               pool()[25]    
---------------------------------------------------------------------------------------------------------------------------------
23   conv2d_23 (Conv2D)     (1,7,7,24)     240/960       10,608    nl_21          |            +3,528(+33.3%)     conv2d()[14]  
---------------------------------------------------------------------------------------------------------------------------------
24   nl_24 (Nonlinearity)   (1,7,7,24)                   1,176     conv2d_23      |            -1,176(-100.0%)   
---------------------------------------------------------------------------------------------------------------------------------
25   conv2d_25 (Conv2D)     (1,7,7,8)      200/800       9,416     nl_24          |                               conv2d()[15]  
---------------------------------------------------------------------------------------------------------------------------------
26   conv2d_26 (Conv2D)     (1,7,7,40)     360/1,440     15,720    conv2d_25      |            +5,880(+37.4%)     conv2d()[16]  
---------------------------------------------------------------------------------------------------------------------------------
27   nl_27 (Nonlinearity)   (1,7,7,40)                   1,960     conv2d_26      |            -1,960(-100.0%)   
---------------------------------------------------------------------------------------------------------------------------------
28   conv2d_28 (Conv2D)     (1,7,7,40)     400/1,600     17,680    nl_27          |            +5,880(+33.3%)     conv2d()[17]  
---------------------------------------------------------------------------------------------------------------------------------
29   nl_29 (Nonlinearity)   (1,7,7,40)                   1,960     conv2d_28      |            -1,960(-100.0%)   
---------------------------------------------------------------------------------------------------------------------------------
30   conv2d_30 (Conv2D)     (1,7,7,8)      328/1,312     15,688    nl_29          |                               conv2d()[18]  
---------------------------------------------------------------------------------------------------------------------------------
31   eltwise_31 (Eltwise)   (1,7,7,8)                    392       conv2d_25      |                               eltwise()[19] 
                                                                   conv2d_30      |  
---------------------------------------------------------------------------------------------------------------------------------
32   conv2d_32 (Conv2D)     (1,7,7,40)     360/1,440     15,720    eltwise_31     |            +5,880(+37.4%)     conv2d()[20]  
---------------------------------------------------------------------------------------------------------------------------------
33   nl_33 (Nonlinearity)   (1,7,7,40)                   1,960     conv2d_32      |            -1,960(-100.0%)   
---------------------------------------------------------------------------------------------------------------------------------
34   conv2d_34 (Conv2D)     (1,7,7,40)     400/1,600     17,680    nl_33          |            +5,880(+33.3%)     conv2d()[21]  
---------------------------------------------------------------------------------------------------------------------------------
35   nl_35 (Nonlinearity)   (1,7,7,40)                   1,960     conv2d_34      |            -1,960(-100.0%)   
---------------------------------------------------------------------------------------------------------------------------------
36   conv2d_36 (Conv2D)     (1,7,7,8)      328/1,312     15,688    nl_35          |                               conv2d()[22]  
---------------------------------------------------------------------------------------------------------------------------------
37   eltwise_37 (Eltwise)   (1,7,7,8)                    392       eltwise_31     |                               eltwise()[23] 
                                                                   conv2d_36      |  
---------------------------------------------------------------------------------------------------------------------------------
38   conv2d_38 (Conv2D)     (1,7,7,24)     216/864       9,432     eltwise_37     |            +3,528(+37.4%)     conv2d()[24]  
---------------------------------------------------------------------------------------------------------------------------------
39   nl_39 (Nonlinearity)   (1,7,7,24)                   1,176     conv2d_38      |            -1,176(-100.0%)   
---------------------------------------------------------------------------------------------------------------------------------
40   concat_40 (Concat)     (1,7,7,48)                             pool_22        |                               concat()[26]  
                                                                   nl_39          |  
---------------------------------------------------------------------------------------------------------------------------------
41   conv2d_41 (Conv2D)     (1,7,7,40)     1,960/7,840   94,120    concat_40      |            +5,880(+6.2%)      conv2d()[27]  
---------------------------------------------------------------------------------------------------------------------------------
42   nl_42 (Nonlinearity)   (1,7,7,40)                   1,960     conv2d_41      |            -1,960(-100.0%)   
---------------------------------------------------------------------------------------------------------------------------------
43   conv2d_43 (Conv2D)     (1,7,7,40)     400/1,600     17,680    nl_42          |            +5,880(+33.3%)     conv2d()[28]  
---------------------------------------------------------------------------------------------------------------------------------
44   nl_44 (Nonlinearity)   (1,7,7,40)                   1,960     conv2d_43      |            -1,960(-100.0%)   
---------------------------------------------------------------------------------------------------------------------------------
45   conv2d_45 (Conv2D)     (1,7,7,32)     1,312/5,248   62,752    nl_44          |            +4,704(+7.5%)      conv2d()[29]  
---------------------------------------------------------------------------------------------------------------------------------
46   nl_46 (Nonlinearity)   (1,7,7,32)                   1,568     conv2d_45      |            -1,568(-100.0%)   
---------------------------------------------------------------------------------------------------------------------------------
47   conv2d_47 (Conv2D)     (1,7,7,18)     594/2,376     28,242    nl_46          |                               conv2d()/o[30]
---------------------------------------------------------------------------------------------------------------------------------
model/c-model: macc=1,344,320/1,480,736 +136,416(+10.1%) weights=38,680/38,680  activations=--/94,200 io=--/3,528



Generated C-graph summary
------------------------------------------------------------------------------------------------------------------------
model name            : yoloface
c-name                : network
c-node #              : 31
c-array #             : 80
activations size      : 94200 (1 segments)
weights size          : 38680 (1 segments)
macc                  : 1480736
inputs                : ['Input_output']
outputs               : ['conv2d_47_output']

C-Arrays (80)
-------------------------------------------------------------------------------------------------
c_id   name (*_array)      item/size     domain/mem-pool           c-type        fmt     comment
-------------------------------------------------------------------------------------------------
0      Input_output        9408/37632    activations/**default**   float         float   /input 
1      conv2d_0_output     6272/25088    activations/**default**   float         float          
2      conv2d_2_output     6272/25088    activations/**default**   float         float          
3      conv2d_4_output     3136/12544    activations/**default**   float         float          
4      conv2d_5_output     14112/56448   activations/**default**   float         float          
5      conv2d_8_output     3528/14112    activations/**default**   float         float          
6      conv2d_10_output    1176/4704     activations/**default**   float         float          
7      conv2d_11_output    7056/28224    activations/**default**   float         float          
8      conv2d_13_output    7056/28224    activations/**default**   float         float          
9      conv2d_15_output    1176/4704     activations/**default**   float         float          
10     eltwise_16_output   1176/4704     activations/**default**   float         float          
11     conv2d_17_output    3528/14112    activations/**default**   float         float          
12     pool_7_output       3528/14112    activations/**default**   float         float          
13     concat_19_output    7056/28224    activations/**default**   float         float          
14     conv2d_20_output    4704/18816    activations/**default**   float         float          
15     conv2d_23_output    1176/4704     activations/**default**   float         float          
16     conv2d_25_output    392/1568      activations/**default**   float         float          
17     conv2d_26_output    1960/7840     activations/**default**   float         float          
18     conv2d_28_output    1960/7840     activations/**default**   float         float          
19     conv2d_30_output    392/1568      activations/**default**   float         float          
20     eltwise_31_output   392/1568      activations/**default**   float         float          
21     conv2d_32_output    1960/7840     activations/**default**   float         float          
22     conv2d_34_output    1960/7840     activations/**default**   float         float          
23     conv2d_36_output    392/1568      activations/**default**   float         float          
24     eltwise_37_output   392/1568      activations/**default**   float         float          
25     conv2d_38_output    1176/4704     activations/**default**   float         float          
26     pool_22_output      1176/4704     activations/**default**   float         float          
27     concat_40_output    2352/9408     activations/**default**   float         float          
28     conv2d_41_output    1960/7840     activations/**default**   float         float          
29     conv2d_43_output    1960/7840     activations/**default**   float         float          
30     conv2d_45_output    1568/6272     activations/**default**   float         float          
31     conv2d_47_output    882/3528      user/                     float         float   /output
32     conv2d_0_weights    216/864       weights/                  const float   float          
33     conv2d_0_bias       8/32          weights/                  const float   float          
34     conv2d_2_weights    72/288        weights/                  const float   float          
35     conv2d_2_bias       8/32          weights/                  const float   float          
36     conv2d_4_weights    32/128        weights/                  const float   float          
37     conv2d_4_bias       4/16          weights/                  const float   float          
38     conv2d_5_weights    72/288        weights/                  const float   float          
39     conv2d_5_bias       18/72         weights/                  const float   float          
40     conv2d_8_weights    162/648       weights/                  const float   float          
41     conv2d_8_bias       18/72         weights/                  const float   float          
42     conv2d_10_weights   108/432       weights/                  const float   float          
43     conv2d_10_bias      6/24          weights/                  const float   float          
44     conv2d_11_weights   216/864       weights/                  const float   float          
45     conv2d_11_bias      36/144        weights/                  const float   float          
46     conv2d_13_weights   324/1296      weights/                  const float   float          
47     conv2d_13_bias      36/144        weights/                  const float   float          
48     conv2d_15_weights   216/864       weights/                  const float   float          
49     conv2d_15_bias      6/24          weights/                  const float   float          
50     conv2d_17_weights   108/432       weights/                  const float   float          
51     conv2d_17_bias      18/72         weights/                  const float   float          
52     conv2d_20_weights   864/3456      weights/                  const float   float          
53     conv2d_20_bias      24/96         weights/                  const float   float          
54     conv2d_23_weights   216/864       weights/                  const float   float          
55     conv2d_23_bias      24/96         weights/                  const float   float          
56     conv2d_25_weights   192/768       weights/                  const float   float          
57     conv2d_25_bias      8/32          weights/                  const float   float          
58     conv2d_26_weights   320/1280      weights/                  const float   float          
59     conv2d_26_bias      40/160        weights/                  const float   float          
60     conv2d_28_weights   360/1440      weights/                  const float   float          
61     conv2d_28_bias      40/160        weights/                  const float   float          
62     conv2d_30_weights   320/1280      weights/                  const float   float          
63     conv2d_30_bias      8/32          weights/                  const float   float          
64     conv2d_32_weights   320/1280      weights/                  const float   float          
65     conv2d_32_bias      40/160        weights/                  const float   float          
66     conv2d_34_weights   360/1440      weights/                  const float   float          
67     conv2d_34_bias      40/160        weights/                  const float   float          
68     conv2d_36_weights   320/1280      weights/                  const float   float          
69     conv2d_36_bias      8/32          weights/                  const float   float          
70     conv2d_38_weights   192/768       weights/                  const float   float          
71     conv2d_38_bias      24/96         weights/                  const float   float          
72     conv2d_41_weights   1920/7680     weights/                  const float   float          
73     conv2d_41_bias      40/160        weights/                  const float   float          
74     conv2d_43_weights   360/1440      weights/                  const float   float          
75     conv2d_43_bias      40/160        weights/                  const float   float          
76     conv2d_45_weights   1280/5120     weights/                  const float   float          
77     conv2d_45_bias      32/128        weights/                  const float   float          
78     conv2d_47_weights   576/2304      weights/                  const float   float          
79     conv2d_47_bias      18/72         weights/                  const float   float          
-------------------------------------------------------------------------------------------------

C-Layers (31)
---------------------------------------------------------------------------------------------------
c_id   name (*_layer)   id   layer_type   macc     rom    tensors                shape (array id) 
---------------------------------------------------------------------------------------------------
0      conv2d_0         1    conv2d       188168   896    I: Input_output        (1,56,56,3) (0)  
                                                          W: conv2d_0_weights    (3,8,3,3) (32)   
                                                          W: conv2d_0_bias       (1,1,1,8) (33)   
                                                          O: conv2d_0_output     (1,28,28,8) (1)  
---------------------------------------------------------------------------------------------------
1      conv2d_2         3    conv2d       75272    320    I: conv2d_0_output     (1,28,28,8) (1)  
                                                          W: conv2d_2_weights    (1,8,3,3) (34)   
                                                          W: conv2d_2_bias       (1,1,1,8) (35)   
                                                          O: conv2d_2_output     (1,28,28,8) (2)  
---------------------------------------------------------------------------------------------------
2      conv2d_4         4    conv2d       25092    144    I: conv2d_2_output     (1,28,28,8) (2)  
                                                          W: conv2d_4_weights    (8,4,1,1) (36)   
                                                          W: conv2d_4_bias       (1,1,1,4) (37)   
                                                          O: conv2d_4_output     (1,28,28,4) (3)  
---------------------------------------------------------------------------------------------------
3      conv2d_5         6    conv2d       98802    360    I: conv2d_4_output     (1,28,28,4) (3)  
                                                          W: conv2d_5_weights    (4,18,1,1) (38)  
                                                          W: conv2d_5_bias       (1,1,1,18) (39)  
                                                          O: conv2d_5_output     (1,28,28,18) (4) 
---------------------------------------------------------------------------------------------------
4      conv2d_8         9    conv2d       42354    720    I: conv2d_5_output     (1,28,28,18) (4) 
                                                          W: conv2d_8_weights    (1,18,3,3) (40)  
                                                          W: conv2d_8_bias       (1,1,1,18) (41)  
                                                          O: conv2d_8_output     (1,14,14,18) (5) 
---------------------------------------------------------------------------------------------------
5      conv2d_10        10   conv2d       21174    456    I: conv2d_8_output     (1,14,14,18) (5) 
                                                          W: conv2d_10_weights   (18,6,1,1) (42)  
                                                          W: conv2d_10_bias      (1,1,1,6) (43)   
                                                          O: conv2d_10_output    (1,14,14,6) (6)  
---------------------------------------------------------------------------------------------------
6      conv2d_11        12   conv2d       63540    1008   I: conv2d_10_output    (1,14,14,6) (6)  
                                                          W: conv2d_11_weights   (6,36,1,1) (44)  
                                                          W: conv2d_11_bias      (1,1,1,36) (45)  
                                                          O: conv2d_11_output    (1,14,14,36) (7) 
---------------------------------------------------------------------------------------------------
7      conv2d_13        14   conv2d       84708    1440   I: conv2d_11_output    (1,14,14,36) (7) 
                                                          W: conv2d_13_weights   (1,36,3,3) (46)  
                                                          W: conv2d_13_bias      (1,1,1,36) (47)  
                                                          O: conv2d_13_output    (1,14,14,36) (8) 
---------------------------------------------------------------------------------------------------
8      conv2d_15        15   conv2d       42342    888    I: conv2d_13_output    (1,14,14,36) (8) 
                                                          W: conv2d_15_weights   (36,6,1,1) (48)  
                                                          W: conv2d_15_bias      (1,1,1,6) (49)   
                                                          O: conv2d_15_output    (1,14,14,6) (9)  
---------------------------------------------------------------------------------------------------
9      eltwise_16       16   eltwise      1176     0      I: conv2d_10_output    (1,14,14,6) (6)  
                                                          I: conv2d_15_output    (1,14,14,6) (9)  
                                                          O: eltwise_16_output   (1,14,14,6) (10) 
---------------------------------------------------------------------------------------------------
10     conv2d_17        18   conv2d       31770    504    I: eltwise_16_output   (1,14,14,6) (10) 
                                                          W: conv2d_17_weights   (6,18,1,1) (50)  
                                                          W: conv2d_17_bias      (1,1,1,18) (51)  
                                                          O: conv2d_17_output    (1,14,14,18) (11)
---------------------------------------------------------------------------------------------------
11     pool_7           7    pool         225792   0      I: conv2d_5_output     (1,28,28,18) (4) 
                                                          O: pool_7_output       (1,14,14,18) (12)
---------------------------------------------------------------------------------------------------
12     concat_19        19   concat       0        0      I: pool_7_output       (1,14,14,18) (12)
                                                          I: conv2d_17_output    (1,14,14,18) (11)
                                                          O: concat_19_output    (1,14,14,36) (13)
---------------------------------------------------------------------------------------------------
13     conv2d_20        21   conv2d       183480   3552   I: concat_19_output    (1,14,14,36) (13)
                                                          W: conv2d_20_weights   (36,24,1,1) (52) 
                                                          W: conv2d_20_bias      (1,1,1,24) (53)  
                                                          O: conv2d_20_output    (1,14,14,24) (14)
---------------------------------------------------------------------------------------------------
14     conv2d_23        24   conv2d       14136    960    I: conv2d_20_output    (1,14,14,24) (14)
                                                          W: conv2d_23_weights   (1,24,3,3) (54)  
                                                          W: conv2d_23_bias      (1,1,1,24) (55)  
                                                          O: conv2d_23_output    (1,7,7,24) (15)  
---------------------------------------------------------------------------------------------------
15     conv2d_25        25   conv2d       9416     800    I: conv2d_23_output    (1,7,7,24) (15)  
                                                          W: conv2d_25_weights   (24,8,1,1) (56)  
                                                          W: conv2d_25_bias      (1,1,1,8) (57)   
                                                          O: conv2d_25_output    (1,7,7,8) (16)   
---------------------------------------------------------------------------------------------------
16     conv2d_26        27   conv2d       21600    1440   I: conv2d_25_output    (1,7,7,8) (16)   
                                                          W: conv2d_26_weights   (8,40,1,1) (58)  
                                                          W: conv2d_26_bias      (1,1,1,40) (59)  
                                                          O: conv2d_26_output    (1,7,7,40) (17)  
---------------------------------------------------------------------------------------------------
17     conv2d_28        29   conv2d       23560    1600   I: conv2d_26_output    (1,7,7,40) (17)  
                                                          W: conv2d_28_weights   (1,40,3,3) (60)  
                                                          W: conv2d_28_bias      (1,1,1,40) (61)  
                                                          O: conv2d_28_output    (1,7,7,40) (18)  
---------------------------------------------------------------------------------------------------
18     conv2d_30        30   conv2d       15688    1312   I: conv2d_28_output    (1,7,7,40) (18)  
                                                          W: conv2d_30_weights   (40,8,1,1) (62)  
                                                          W: conv2d_30_bias      (1,1,1,8) (63)   
                                                          O: conv2d_30_output    (1,7,7,8) (19)   
---------------------------------------------------------------------------------------------------
19     eltwise_31       31   eltwise      392      0      I: conv2d_25_output    (1,7,7,8) (16)   
                                                          I: conv2d_30_output    (1,7,7,8) (19)   
                                                          O: eltwise_31_output   (1,7,7,8) (20)   
---------------------------------------------------------------------------------------------------
20     conv2d_32        33   conv2d       21600    1440   I: eltwise_31_output   (1,7,7,8) (20)   
                                                          W: conv2d_32_weights   (8,40,1,1) (64)  
                                                          W: conv2d_32_bias      (1,1,1,40) (65)  
                                                          O: conv2d_32_output    (1,7,7,40) (21)  
---------------------------------------------------------------------------------------------------
21     conv2d_34        35   conv2d       23560    1600   I: conv2d_32_output    (1,7,7,40) (21)  
                                                          W: conv2d_34_weights   (1,40,3,3) (66)  
                                                          W: conv2d_34_bias      (1,1,1,40) (67)  
                                                          O: conv2d_34_output    (1,7,7,40) (22)  
---------------------------------------------------------------------------------------------------
22     conv2d_36        36   conv2d       15688    1312   I: conv2d_34_output    (1,7,7,40) (22)  
                                                          W: conv2d_36_weights   (40,8,1,1) (68)  
                                                          W: conv2d_36_bias      (1,1,1,8) (69)   
                                                          O: conv2d_36_output    (1,7,7,8) (23)   
---------------------------------------------------------------------------------------------------
23     eltwise_37       37   eltwise      392      0      I: eltwise_31_output   (1,7,7,8) (20)   
                                                          I: conv2d_36_output    (1,7,7,8) (23)   
                                                          O: eltwise_37_output   (1,7,7,8) (24)   
---------------------------------------------------------------------------------------------------
24     conv2d_38        39   conv2d       12960    864    I: eltwise_37_output   (1,7,7,8) (24)   
                                                          W: conv2d_38_weights   (8,24,1,1) (70)  
                                                          W: conv2d_38_bias      (1,1,1,24) (71)  
                                                          O: conv2d_38_output    (1,7,7,24) (25)  
---------------------------------------------------------------------------------------------------
25     pool_22          22   pool         18816    0      I: conv2d_20_output    (1,14,14,24) (14)
                                                          O: pool_22_output      (1,7,7,24) (26)  
---------------------------------------------------------------------------------------------------
26     concat_40        40   concat       0        0      I: pool_22_output      (1,7,7,24) (26)  
                                                          I: conv2d_38_output    (1,7,7,24) (25)  
                                                          O: concat_40_output    (1,7,7,48) (27)  
---------------------------------------------------------------------------------------------------
27     conv2d_41        42   conv2d       100000   7840   I: concat_40_output    (1,7,7,48) (27)  
                                                          W: conv2d_41_weights   (48,40,1,1) (72) 
                                                          W: conv2d_41_bias      (1,1,1,40) (73)  
                                                          O: conv2d_41_output    (1,7,7,40) (28)  
---------------------------------------------------------------------------------------------------
28     conv2d_43        44   conv2d       23560    1600   I: conv2d_41_output    (1,7,7,40) (28)  
                                                          W: conv2d_43_weights   (1,40,3,3) (74)  
                                                          W: conv2d_43_bias      (1,1,1,40) (75)  
                                                          O: conv2d_43_output    (1,7,7,40) (29)  
---------------------------------------------------------------------------------------------------
29     conv2d_45        46   conv2d       67456    5248   I: conv2d_43_output    (1,7,7,40) (29)  
                                                          W: conv2d_45_weights   (40,32,1,1) (76) 
                                                          W: conv2d_45_bias      (1,1,1,32) (77)  
                                                          O: conv2d_45_output    (1,7,7,32) (30)  
---------------------------------------------------------------------------------------------------
30     conv2d_47        47   conv2d       28242    2376   I: conv2d_45_output    (1,7,7,32) (30)  
                                                          W: conv2d_47_weights   (32,18,1,1) (78) 
                                                          W: conv2d_47_bias      (1,1,1,18) (79)  
                                                          O: conv2d_47_output    (1,7,7,18) (31)  
---------------------------------------------------------------------------------------------------



Complexity report per layer - macc=1,480,736 weights=38,680 act=94,200 ram_io=3,528
---------------------------------------------------------------------------
id   name         c_macc                    c_rom                     c_id
---------------------------------------------------------------------------
0    conv2d_0     |||||||||||||     12.7%   ||                 2.3%   [0] 
2    conv2d_2     ||||||             5.1%   |                  0.8%   [1] 
4    conv2d_4     ||                 1.7%   |                  0.4%   [2] 
5    conv2d_5     |||||||            6.7%   |                  0.9%   [3] 
7    pool_7       ||||||||||||||||  15.2%   |                  0.0%   [11]
8    conv2d_8     |||                2.9%   ||                 1.9%   [4] 
10   conv2d_10    ||                 1.4%   |                  1.2%   [5] 
11   conv2d_11    |||||              4.3%   ||                 2.6%   [6] 
13   conv2d_13    ||||||             5.7%   |||                3.7%   [7] 
15   conv2d_15    |||                2.9%   ||                 2.3%   [8] 
16   eltwise_16   |                  0.1%   |                  0.0%   [9] 
17   conv2d_17    |||                2.1%   |                  1.3%   [10]
19   concat_19    |                  0.0%   |                  0.0%   [12]
20   conv2d_20    |||||||||||||     12.4%   |||||||            9.2%   [13]
22   pool_22      ||                 1.3%   |                  0.0%   [25]
23   conv2d_23    |                  1.0%   ||                 2.5%   [14]
25   conv2d_25    |                  0.6%   ||                 2.1%   [15]
26   conv2d_26    ||                 1.5%   |||                3.7%   [16]
28   conv2d_28    ||                 1.6%   ||||               4.1%   [17]
30   conv2d_30    ||                 1.1%   |||                3.4%   [18]
31   eltwise_31   |                  0.0%   |                  0.0%   [19]
32   conv2d_32    ||                 1.5%   |||                3.7%   [20]
34   conv2d_34    ||                 1.6%   ||||               4.1%   [21]
36   conv2d_36    ||                 1.1%   |||                3.4%   [22]
37   eltwise_37   |                  0.0%   |                  0.0%   [23]
38   conv2d_38    |                  0.9%   ||                 2.2%   [24]
40   concat_40    |                  0.0%   |                  0.0%   [26]
41   conv2d_41    |||||||            6.8%   ||||||||||||||||  20.3%   [27]
43   conv2d_43    ||                 1.6%   ||||               4.1%   [28]
45   conv2d_45    |||||              4.6%   |||||||||||       13.6%   [29]
47   conv2d_47    ||                 1.9%   |||||              6.1%   [30]

Generated files (5)
---------------------------------------------------------------------
C:\Users\Flash\.stm32cubemx\network_output\network_config.h
C:\Users\Flash\.stm32cubemx\network_output\network.h
C:\Users\Flash\.stm32cubemx\network_output\network.c
C:\Users\Flash\.stm32cubemx\network_output\network_data.h
C:\Users\Flash\.stm32cubemx\network_output\network_data.c
