Neural Network Tools for STM32AI v1.6.0 (STM.ai v7.1.0-RC3)
Created date          : 2022-02-16 11:55:15
Parameters            : generate --name network -m D:/Flash/Documents/Git/Projet5A/Test1classeClavier/ModeleClavier1classe.tflite --type tflite --compression 1 --verbosity 1 --workspace C:\Users\Flash\AppData\Local\Temp\mxAI_workspace4045578658547003911471588485041485 --output C:\Users\Flash\.stm32cubemx\network_output --allocate-inputs

Exec/report summary (generate)
------------------------------------------------------------------------------------------------------------------------
model file            : D:\Flash\Documents\Git\Projet5A\Test1classeClavier\ModeleClavier1classe.tflite
type                  : tflite
c_name                : network
compression           : None
allocator strategy    : ['allocate-inputs']
workspace dir         : C:\Users\Flash\AppData\Local\Temp\mxAI_workspace4045578658547003911471588485041485
output dir            : C:\Users\Flash\.stm32cubemx\network_output
model_name            : ModeleClavier1classe
model_hash            : 30d750a074f6344fc49353c92a7ec7c4
input 1/1             : 'serving_default_input_20'
                        49152 items, 48.00 KiB, ai_u8, scale=0.00784314, zero_point=127, (1,128,128,3), domain:activations/**default**
output 1/1            : 'nl_69_0_conversion'
                        2 items, 2 B, ai_u8, scale=0.00390625, zero_point=0, (1,1,1,2), domain:user/
params #              : 391,650 items (403.10 KiB)
macc                  : 19,095,976
weights (ro)          : 412,776 B (403.10 KiB) (1 segment)
activations (rw)      : 229,888 B (224.50 KiB) (1 segment) *
ram (total)           : 229,890 B (224.50 KiB) = 229,888 + 0 + 2

(*) input buffers can be used from the activations buffer

Model name - ModeleClavier1classe ['serving_default_input_20'] ['conversion_70']
--------------------------------------------------------------------------------------------------------------------------------------------------------------------------
id   layer (type)                       oshape          param/size        macc        connected to               |   c_size   c_macc              c_type                 
--------------------------------------------------------------------------------------------------------------------------------------------------------------------------
0    serving_default_input_20 (Input)   (1,128,128,3)                                                            |                               
     conversion_0 (Conversion)          (1,128,128,3)                     98,304      serving_default_input_20   |                                conv(i)[0]             
--------------------------------------------------------------------------------------------------------------------------------------------------------------------------
1    conv2d_1 (Conv2D)                  (1,64,64,16)    448/496           1,769,488   conversion_0               |                                conv2d(i)[1]           
     nl_1_nl (Nonlinearity)             (1,64,64,16)                      65,536      conv2d_1                   |            -65,536(-100.0%)   
--------------------------------------------------------------------------------------------------------------------------------------------------------------------------
2    conv2d_2 (Conv2D)                  (1,64,64,16)    160/208           589,840     nl_1_nl                    |                                conv2d(i)[2]           
     nl_2_nl (Nonlinearity)             (1,64,64,16)                      65,536      conv2d_2                   |            -65,536(-100.0%)   
--------------------------------------------------------------------------------------------------------------------------------------------------------------------------
3    conv2d_3 (Conv2D)                  (1,64,64,8)     136/160           524,296     nl_2_nl                    |                                conv2d(i)[3]           
--------------------------------------------------------------------------------------------------------------------------------------------------------------------------
4    conv2d_4 (Conv2D)                  (1,64,64,48)    432/576           1,572,912   conv2d_3                   |                                conv2d(i)[4]           
     nl_4_nl (Nonlinearity)             (1,64,64,48)                      196,608     conv2d_4                   |            -196,608(-100.0%)  
--------------------------------------------------------------------------------------------------------------------------------------------------------------------------
5    pad_5 (Pad)                        (1,65,65,48)                                  nl_4_nl                    |                               
--------------------------------------------------------------------------------------------------------------------------------------------------------------------------
6    conv2d_6 (Conv2D)                  (1,32,32,48)    480/624           442,416     pad_5                      |                                conv2d(i)[5]           
     nl_6_nl (Nonlinearity)             (1,32,32,48)                      49,152      conv2d_6                   |            -49,152(-100.0%)   
--------------------------------------------------------------------------------------------------------------------------------------------------------------------------
7    conv2d_7 (Conv2D)                  (1,32,32,8)     392/416           393,224     nl_6_nl                    |                                conv2d(i)[6]           
--------------------------------------------------------------------------------------------------------------------------------------------------------------------------
8    conv2d_8 (Conv2D)                  (1,32,32,48)    432/576           393,264     conv2d_7                   |                                conv2d(i)[7]           
     nl_8_nl (Nonlinearity)             (1,32,32,48)                      49,152      conv2d_8                   |            -49,152(-100.0%)   
--------------------------------------------------------------------------------------------------------------------------------------------------------------------------
9    conv2d_9 (Conv2D)                  (1,32,32,48)    480/624           442,416     nl_8_nl                    |                                conv2d(i)[8]           
     nl_9_nl (Nonlinearity)             (1,32,32,48)                      49,152      conv2d_9                   |            -49,152(-100.0%)   
--------------------------------------------------------------------------------------------------------------------------------------------------------------------------
10   conv2d_10 (Conv2D)                 (1,32,32,8)     392/416           393,224     nl_9_nl                    |                                conv2d(i)[9]           
--------------------------------------------------------------------------------------------------------------------------------------------------------------------------
11   eltwise_11 (Eltwise)               (1,32,32,8)                       8,192       conv2d_7                   |                                eltwise_integer(i)[10] 
                                                                                      conv2d_10                  |  
--------------------------------------------------------------------------------------------------------------------------------------------------------------------------
12   conv2d_12 (Conv2D)                 (1,32,32,48)    432/576           393,264     eltwise_11                 |                                conv2d(i)[11]          
     nl_12_nl (Nonlinearity)            (1,32,32,48)                      49,152      conv2d_12                  |            -49,152(-100.0%)   
--------------------------------------------------------------------------------------------------------------------------------------------------------------------------
13   pad_13 (Pad)                       (1,33,33,48)                                  nl_12_nl                   |                               
--------------------------------------------------------------------------------------------------------------------------------------------------------------------------
14   conv2d_14 (Conv2D)                 (1,16,16,48)    480/624           110,640     pad_13                     |                                conv2d(i)[12]          
     nl_14_nl (Nonlinearity)            (1,16,16,48)                      12,288      conv2d_14                  |            -12,288(-100.0%)   
--------------------------------------------------------------------------------------------------------------------------------------------------------------------------
15   conv2d_15 (Conv2D)                 (1,16,16,16)    784/832           196,624     nl_14_nl                   |                                conv2d(i)[13]          
--------------------------------------------------------------------------------------------------------------------------------------------------------------------------
16   conv2d_16 (Conv2D)                 (1,16,16,96)    1,632/1,920       393,312     conv2d_15                  |                                conv2d(i)[14]          
     nl_16_nl (Nonlinearity)            (1,16,16,96)                      24,576      conv2d_16                  |            -24,576(-100.0%)   
--------------------------------------------------------------------------------------------------------------------------------------------------------------------------
17   conv2d_17 (Conv2D)                 (1,16,16,96)    960/1,248         221,280     nl_16_nl                   |                                conv2d(i)[15]          
     nl_17_nl (Nonlinearity)            (1,16,16,96)                      24,576      conv2d_17                  |            -24,576(-100.0%)   
--------------------------------------------------------------------------------------------------------------------------------------------------------------------------
18   conv2d_18 (Conv2D)                 (1,16,16,16)    1,552/1,600       393,232     nl_17_nl                   |                                conv2d(i)[16]          
--------------------------------------------------------------------------------------------------------------------------------------------------------------------------
19   eltwise_19 (Eltwise)               (1,16,16,16)                      4,096       conv2d_15                  |                                eltwise_integer(i)[17] 
                                                                                      conv2d_18                  |  
--------------------------------------------------------------------------------------------------------------------------------------------------------------------------
20   conv2d_20 (Conv2D)                 (1,16,16,96)    1,632/1,920       393,312     eltwise_19                 |                                conv2d(i)[18]          
     nl_20_nl (Nonlinearity)            (1,16,16,96)                      24,576      conv2d_20                  |            -24,576(-100.0%)   
--------------------------------------------------------------------------------------------------------------------------------------------------------------------------
21   conv2d_21 (Conv2D)                 (1,16,16,96)    960/1,248         221,280     nl_20_nl                   |                                conv2d(i)[19]          
     nl_21_nl (Nonlinearity)            (1,16,16,96)                      24,576      conv2d_21                  |            -24,576(-100.0%)   
--------------------------------------------------------------------------------------------------------------------------------------------------------------------------
22   conv2d_22 (Conv2D)                 (1,16,16,16)    1,552/1,600       393,232     nl_21_nl                   |                                conv2d(i)[20]          
--------------------------------------------------------------------------------------------------------------------------------------------------------------------------
23   eltwise_23 (Eltwise)               (1,16,16,16)                      4,096       eltwise_19                 |                                eltwise_integer(i)[21] 
                                                                                      conv2d_22                  |  
--------------------------------------------------------------------------------------------------------------------------------------------------------------------------
24   conv2d_24 (Conv2D)                 (1,16,16,96)    1,632/1,920       393,312     eltwise_23                 |                                conv2d(i)[22]          
     nl_24_nl (Nonlinearity)            (1,16,16,96)                      24,576      conv2d_24                  |            -24,576(-100.0%)   
--------------------------------------------------------------------------------------------------------------------------------------------------------------------------
25   pad_25 (Pad)                       (1,17,17,96)                                  nl_24_nl                   |                               
--------------------------------------------------------------------------------------------------------------------------------------------------------------------------
26   conv2d_26 (Conv2D)                 (1,8,8,96)      960/1,248         55,392      pad_25                     |                                conv2d(i)[23]          
     nl_26_nl (Nonlinearity)            (1,8,8,96)                        6,144       conv2d_26                  |            -6,144(-100.0%)    
--------------------------------------------------------------------------------------------------------------------------------------------------------------------------
27   conv2d_27 (Conv2D)                 (1,8,8,24)      2,328/2,400       147,480     nl_26_nl                   |                                conv2d(i)[24]          
--------------------------------------------------------------------------------------------------------------------------------------------------------------------------
28   conv2d_28 (Conv2D)                 (1,8,8,144)     3,600/4,032       221,328     conv2d_27                  |                                conv2d(i)[25]          
     nl_28_nl (Nonlinearity)            (1,8,8,144)                       9,216       conv2d_28                  |            -9,216(-100.0%)    
--------------------------------------------------------------------------------------------------------------------------------------------------------------------------
29   conv2d_29 (Conv2D)                 (1,8,8,144)     1,440/1,872       83,088      nl_28_nl                   |                                conv2d(i)[26]          
     nl_29_nl (Nonlinearity)            (1,8,8,144)                       9,216       conv2d_29                  |            -9,216(-100.0%)    
--------------------------------------------------------------------------------------------------------------------------------------------------------------------------
30   conv2d_30 (Conv2D)                 (1,8,8,24)      3,480/3,552       221,208     nl_29_nl                   |                                conv2d(i)[27]          
--------------------------------------------------------------------------------------------------------------------------------------------------------------------------
31   eltwise_31 (Eltwise)               (1,8,8,24)                        1,536       conv2d_27                  |                                eltwise_integer(i)[28] 
                                                                                      conv2d_30                  |  
--------------------------------------------------------------------------------------------------------------------------------------------------------------------------
32   conv2d_32 (Conv2D)                 (1,8,8,144)     3,600/4,032       221,328     eltwise_31                 |                                conv2d(i)[29]          
     nl_32_nl (Nonlinearity)            (1,8,8,144)                       9,216       conv2d_32                  |            -9,216(-100.0%)    
--------------------------------------------------------------------------------------------------------------------------------------------------------------------------
33   conv2d_33 (Conv2D)                 (1,8,8,144)     1,440/1,872       83,088      nl_32_nl                   |                                conv2d(i)[30]          
     nl_33_nl (Nonlinearity)            (1,8,8,144)                       9,216       conv2d_33                  |            -9,216(-100.0%)    
--------------------------------------------------------------------------------------------------------------------------------------------------------------------------
34   conv2d_34 (Conv2D)                 (1,8,8,24)      3,480/3,552       221,208     nl_33_nl                   |                                conv2d(i)[31]          
--------------------------------------------------------------------------------------------------------------------------------------------------------------------------
35   eltwise_35 (Eltwise)               (1,8,8,24)                        1,536       eltwise_31                 |                                eltwise_integer(i)[32] 
                                                                                      conv2d_34                  |  
--------------------------------------------------------------------------------------------------------------------------------------------------------------------------
36   conv2d_36 (Conv2D)                 (1,8,8,144)     3,600/4,032       221,328     eltwise_35                 |                                conv2d(i)[33]          
     nl_36_nl (Nonlinearity)            (1,8,8,144)                       9,216       conv2d_36                  |            -9,216(-100.0%)    
--------------------------------------------------------------------------------------------------------------------------------------------------------------------------
37   conv2d_37 (Conv2D)                 (1,8,8,144)     1,440/1,872       83,088      nl_36_nl                   |                                conv2d(i)[34]          
     nl_37_nl (Nonlinearity)            (1,8,8,144)                       9,216       conv2d_37                  |            -9,216(-100.0%)    
--------------------------------------------------------------------------------------------------------------------------------------------------------------------------
38   conv2d_38 (Conv2D)                 (1,8,8,24)      3,480/3,552       221,208     nl_37_nl                   |                                conv2d(i)[35]          
--------------------------------------------------------------------------------------------------------------------------------------------------------------------------
39   eltwise_39 (Eltwise)               (1,8,8,24)                        1,536       eltwise_35                 |                                eltwise_integer(i)[36] 
                                                                                      conv2d_38                  |  
--------------------------------------------------------------------------------------------------------------------------------------------------------------------------
40   conv2d_40 (Conv2D)                 (1,8,8,144)     3,600/4,032       221,328     eltwise_39                 |                                conv2d(i)[37]          
     nl_40_nl (Nonlinearity)            (1,8,8,144)                       9,216       conv2d_40                  |            -9,216(-100.0%)    
--------------------------------------------------------------------------------------------------------------------------------------------------------------------------
41   conv2d_41 (Conv2D)                 (1,8,8,144)     1,440/1,872       83,088      nl_40_nl                   |                                conv2d(i)[38]          
     nl_41_nl (Nonlinearity)            (1,8,8,144)                       9,216       conv2d_41                  |            -9,216(-100.0%)    
--------------------------------------------------------------------------------------------------------------------------------------------------------------------------
42   conv2d_42 (Conv2D)                 (1,8,8,32)      4,640/4,736       294,944     nl_41_nl                   |                                conv2d(i)[39]          
--------------------------------------------------------------------------------------------------------------------------------------------------------------------------
43   conv2d_43 (Conv2D)                 (1,8,8,192)     6,336/6,912       393,408     conv2d_42                  |                                conv2d(i)[40]          
     nl_43_nl (Nonlinearity)            (1,8,8,192)                       12,288      conv2d_43                  |            -12,288(-100.0%)   
--------------------------------------------------------------------------------------------------------------------------------------------------------------------------
44   conv2d_44 (Conv2D)                 (1,8,8,192)     1,920/2,496       110,784     nl_43_nl                   |                                conv2d(i)[41]          
     nl_44_nl (Nonlinearity)            (1,8,8,192)                       12,288      conv2d_44                  |            -12,288(-100.0%)   
--------------------------------------------------------------------------------------------------------------------------------------------------------------------------
45   conv2d_45 (Conv2D)                 (1,8,8,32)      6,176/6,272       393,248     nl_44_nl                   |                                conv2d(i)[42]          
--------------------------------------------------------------------------------------------------------------------------------------------------------------------------
46   eltwise_46 (Eltwise)               (1,8,8,32)                        2,048       conv2d_42                  |                                eltwise_integer(i)[43] 
                                                                                      conv2d_45                  |  
--------------------------------------------------------------------------------------------------------------------------------------------------------------------------
47   conv2d_47 (Conv2D)                 (1,8,8,192)     6,336/6,912       393,408     eltwise_46                 |                                conv2d(i)[44]          
     nl_47_nl (Nonlinearity)            (1,8,8,192)                       12,288      conv2d_47                  |            -12,288(-100.0%)   
--------------------------------------------------------------------------------------------------------------------------------------------------------------------------
48   conv2d_48 (Conv2D)                 (1,8,8,192)     1,920/2,496       110,784     nl_47_nl                   |                                conv2d(i)[45]          
     nl_48_nl (Nonlinearity)            (1,8,8,192)                       12,288      conv2d_48                  |            -12,288(-100.0%)   
--------------------------------------------------------------------------------------------------------------------------------------------------------------------------
49   conv2d_49 (Conv2D)                 (1,8,8,32)      6,176/6,272       393,248     nl_48_nl                   |                                conv2d(i)[46]          
--------------------------------------------------------------------------------------------------------------------------------------------------------------------------
50   eltwise_50 (Eltwise)               (1,8,8,32)                        2,048       eltwise_46                 |                                eltwise_integer(i)[47] 
                                                                                      conv2d_49                  |  
--------------------------------------------------------------------------------------------------------------------------------------------------------------------------
51   conv2d_51 (Conv2D)                 (1,8,8,192)     6,336/6,912       393,408     eltwise_50                 |                                conv2d(i)[48]          
     nl_51_nl (Nonlinearity)            (1,8,8,192)                       12,288      conv2d_51                  |            -12,288(-100.0%)   
--------------------------------------------------------------------------------------------------------------------------------------------------------------------------
52   pad_52 (Pad)                       (1,9,9,192)                                   nl_51_nl                   |                               
--------------------------------------------------------------------------------------------------------------------------------------------------------------------------
53   conv2d_53 (Conv2D)                 (1,4,4,192)     1,920/2,496       27,840      pad_52                     |                                conv2d(i)[49]          
     nl_53_nl (Nonlinearity)            (1,4,4,192)                       3,072       conv2d_53                  |            -3,072(-100.0%)    
--------------------------------------------------------------------------------------------------------------------------------------------------------------------------
54   conv2d_54 (Conv2D)                 (1,4,4,56)      10,808/10,976     172,088     nl_53_nl                   |                                conv2d(i)[50]          
--------------------------------------------------------------------------------------------------------------------------------------------------------------------------
55   conv2d_55 (Conv2D)                 (1,4,4,336)     19,152/20,160     301,392     conv2d_54                  |                                conv2d(i)[51]          
     nl_55_nl (Nonlinearity)            (1,4,4,336)                       5,376       conv2d_55                  |            -5,376(-100.0%)    
--------------------------------------------------------------------------------------------------------------------------------------------------------------------------
56   conv2d_56 (Conv2D)                 (1,4,4,336)     3,360/4,368       48,720      nl_55_nl                   |                                conv2d(i)[52]          
     nl_56_nl (Nonlinearity)            (1,4,4,336)                       5,376       conv2d_56                  |            -5,376(-100.0%)    
--------------------------------------------------------------------------------------------------------------------------------------------------------------------------
57   conv2d_57 (Conv2D)                 (1,4,4,56)      18,872/19,040     301,112     nl_56_nl                   |                                conv2d(i)[53]          
--------------------------------------------------------------------------------------------------------------------------------------------------------------------------
58   eltwise_58 (Eltwise)               (1,4,4,56)                        896         conv2d_54                  |                                eltwise_integer(i)[54] 
                                                                                      conv2d_57                  |  
--------------------------------------------------------------------------------------------------------------------------------------------------------------------------
59   conv2d_59 (Conv2D)                 (1,4,4,336)     19,152/20,160     301,392     eltwise_58                 |                                conv2d(i)[55]          
     nl_59_nl (Nonlinearity)            (1,4,4,336)                       5,376       conv2d_59                  |            -5,376(-100.0%)    
--------------------------------------------------------------------------------------------------------------------------------------------------------------------------
60   conv2d_60 (Conv2D)                 (1,4,4,336)     3,360/4,368       48,720      nl_59_nl                   |                                conv2d(i)[56]          
     nl_60_nl (Nonlinearity)            (1,4,4,336)                       5,376       conv2d_60                  |            -5,376(-100.0%)    
--------------------------------------------------------------------------------------------------------------------------------------------------------------------------
61   conv2d_61 (Conv2D)                 (1,4,4,56)      18,872/19,040     301,112     nl_60_nl                   |                                conv2d(i)[57]          
--------------------------------------------------------------------------------------------------------------------------------------------------------------------------
62   eltwise_62 (Eltwise)               (1,4,4,56)                        896         eltwise_58                 |                                eltwise_integer(i)[58] 
                                                                                      conv2d_61                  |  
--------------------------------------------------------------------------------------------------------------------------------------------------------------------------
63   conv2d_63 (Conv2D)                 (1,4,4,336)     19,152/20,160     301,392     eltwise_62                 |                                conv2d(i)[59]          
     nl_63_nl (Nonlinearity)            (1,4,4,336)                       5,376       conv2d_63                  |            -5,376(-100.0%)    
--------------------------------------------------------------------------------------------------------------------------------------------------------------------------
64   conv2d_64 (Conv2D)                 (1,4,4,336)     3,360/4,368       48,720      nl_63_nl                   |                                conv2d(i)[60]          
     nl_64_nl (Nonlinearity)            (1,4,4,336)                       5,376       conv2d_64                  |            -5,376(-100.0%)    
--------------------------------------------------------------------------------------------------------------------------------------------------------------------------
65   conv2d_65 (Conv2D)                 (1,4,4,112)     37,744/38,080     602,224     nl_64_nl                   |                                conv2d(i)[61]          
--------------------------------------------------------------------------------------------------------------------------------------------------------------------------
66   conv2d_66 (Conv2D)                 (1,4,4,1280)    144,640/148,480   2,295,040   conv2d_65                  |            +20,480(+0.9%)      optimized_conv2d(i)[62]
     nl_66_nl (Nonlinearity)            (1,4,4,1280)                      20,480      conv2d_66                  |            -20,480(-100.0%)   
--------------------------------------------------------------------------------------------------------------------------------------------------------------------------
67   pool_67 (Pool)                     (1,1,1,1280)                      20,480      nl_66_nl                   |            -20,480(-100.0%)   
     reshape_67_reshape (Reshape)       (1,1,1,1280)                                  pool_67                    |                               
--------------------------------------------------------------------------------------------------------------------------------------------------------------------------
68   dense_68 (Dense)                   (1,1,1,2)       2,562/2,568       2,562       reshape_67_reshape         |            +4(+0.2%)           dense(i)/conv()[63, 64]
--------------------------------------------------------------------------------------------------------------------------------------------------------------------------
69   nl_69 (Nonlinearity)               (1,1,1,2)                         30          dense_68                   |            +4(+13.3%)          nl()/conv(i)/o[65, 66] 
--------------------------------------------------------------------------------------------------------------------------------------------------------------------------
70   conversion_70 (Conversion)         (1,1,1,2)                         4           nl_69                      |            -4(-100.0%)        
--------------------------------------------------------------------------------------------------------------------------------------------------------------------------
model/c-model: macc=19,952,548/19,095,976 -856,572(-4.3%) weights=412,776/412,776  activations=--/229,888 io=--/2



Generated C-graph summary
------------------------------------------------------------------------------------------------------------------------
model name            : modeleclavier1classe
c-name                : network
c-node #              : 67
c-array #             : 262
activations size      : 229888 (1 segments)
weights size          : 412776 (1 segments)
macc                  : 19095976
inputs                : ['serving_default_input_20_output']
outputs               : ['nl_69_0_conversion_output']

C-Arrays (262)
-------------------------------------------------------------------------------------------------------------------------------------
c_id   name (*_array)                    item/size       domain/mem-pool           c-type          fmt                       comment
-------------------------------------------------------------------------------------------------------------------------------------
0      serving_default_input_20_output   49152/49152     activations/**default**   uint8_t         int8/ua                   /input 
1      conversion_0_output               49153/49153     activations/**default**   int8_t          int8/sa                          
2      conv2d_1_output                   65536/65536     activations/**default**   int8_t          int8/sa                          
3      conv2d_2_output                   65536/65536     activations/**default**   int8_t          int8/sa                          
4      conv2d_3_output                   32768/32768     activations/**default**   int8_t          int8/sa                          
5      conv2d_4_output                   196608/196608   activations/**default**   int8_t          int8/sa                          
6      conv2d_6_output                   49152/49152     activations/**default**   int8_t          int8/sa                          
7      conv2d_7_output                   8192/8192       activations/**default**   int8_t          int8/sa                          
8      conv2d_8_output                   49152/49152     activations/**default**   int8_t          int8/sa                          
9      conv2d_9_output                   49152/49152     activations/**default**   int8_t          int8/sa                          
10     conv2d_10_output                  8192/8192       activations/**default**   int8_t          int8/sa                          
11     eltwise_11_output                 8192/8192       activations/**default**   int8_t          int8/sa                          
12     conv2d_12_output                  49152/49152     activations/**default**   int8_t          int8/sa                          
13     conv2d_14_output                  12288/12288     activations/**default**   int8_t          int8/sa                          
14     conv2d_15_output                  4096/4096       activations/**default**   int8_t          int8/sa                          
15     conv2d_16_output                  24576/24576     activations/**default**   int8_t          int8/sa                          
16     conv2d_17_output                  24576/24576     activations/**default**   int8_t          int8/sa                          
17     conv2d_18_output                  4096/4096       activations/**default**   int8_t          int8/sa                          
18     eltwise_19_output                 4096/4096       activations/**default**   int8_t          int8/sa                          
19     conv2d_20_output                  24576/24576     activations/**default**   int8_t          int8/sa                          
20     conv2d_21_output                  24576/24576     activations/**default**   int8_t          int8/sa                          
21     conv2d_22_output                  4096/4096       activations/**default**   int8_t          int8/sa                          
22     eltwise_23_output                 4096/4096       activations/**default**   int8_t          int8/sa                          
23     conv2d_24_output                  24576/24576     activations/**default**   int8_t          int8/sa                          
24     conv2d_26_output                  6144/6144       activations/**default**   int8_t          int8/sa                          
25     conv2d_27_output                  1536/1536       activations/**default**   int8_t          int8/sa                          
26     conv2d_28_output                  9216/9216       activations/**default**   int8_t          int8/sa                          
27     conv2d_29_output                  9216/9216       activations/**default**   int8_t          int8/sa                          
28     conv2d_30_output                  1536/1536       activations/**default**   int8_t          int8/sa                          
29     eltwise_31_output                 1536/1536       activations/**default**   int8_t          int8/sa                          
30     conv2d_32_output                  9216/9216       activations/**default**   int8_t          int8/sa                          
31     conv2d_33_output                  9216/9216       activations/**default**   int8_t          int8/sa                          
32     conv2d_34_output                  1536/1536       activations/**default**   int8_t          int8/sa                          
33     eltwise_35_output                 1536/1536       activations/**default**   int8_t          int8/sa                          
34     conv2d_36_output                  9216/9216       activations/**default**   int8_t          int8/sa                          
35     conv2d_37_output                  9216/9216       activations/**default**   int8_t          int8/sa                          
36     conv2d_38_output                  1536/1536       activations/**default**   int8_t          int8/sa                          
37     eltwise_39_output                 1536/1536       activations/**default**   int8_t          int8/sa                          
38     conv2d_40_output                  9216/9216       activations/**default**   int8_t          int8/sa                          
39     conv2d_41_output                  9216/9216       activations/**default**   int8_t          int8/sa                          
40     conv2d_42_output                  2048/2048       activations/**default**   int8_t          int8/sa                          
41     conv2d_43_output                  12288/12288     activations/**default**   int8_t          int8/sa                          
42     conv2d_44_output                  12288/12288     activations/**default**   int8_t          int8/sa                          
43     conv2d_45_output                  2048/2048       activations/**default**   int8_t          int8/sa                          
44     eltwise_46_output                 2048/2048       activations/**default**   int8_t          int8/sa                          
45     conv2d_47_output                  12288/12288     activations/**default**   int8_t          int8/sa                          
46     conv2d_48_output                  12288/12288     activations/**default**   int8_t          int8/sa                          
47     conv2d_49_output                  2048/2048       activations/**default**   int8_t          int8/sa                          
48     eltwise_50_output                 2048/2048       activations/**default**   int8_t          int8/sa                          
49     conv2d_51_output                  12288/12288     activations/**default**   int8_t          int8/sa                          
50     conv2d_53_output                  3072/3072       activations/**default**   int8_t          int8/sa                          
51     conv2d_54_output                  896/896         activations/**default**   int8_t          int8/sa                          
52     conv2d_55_output                  5376/5376       activations/**default**   int8_t          int8/sa                          
53     conv2d_56_output                  5376/5376       activations/**default**   int8_t          int8/sa                          
54     conv2d_57_output                  896/896         activations/**default**   int8_t          int8/sa                          
55     eltwise_58_output                 896/896         activations/**default**   int8_t          int8/sa                          
56     conv2d_59_output                  5376/5376       activations/**default**   int8_t          int8/sa                          
57     conv2d_60_output                  5376/5376       activations/**default**   int8_t          int8/sa                          
58     conv2d_61_output                  896/896         activations/**default**   int8_t          int8/sa                          
59     eltwise_62_output                 896/896         activations/**default**   int8_t          int8/sa                          
60     conv2d_63_output                  5376/5376       activations/**default**   int8_t          int8/sa                          
61     conv2d_64_output                  5376/5376       activations/**default**   int8_t          int8/sa                          
62     conv2d_65_output                  1792/1792       activations/**default**   int8_t          int8/sa                          
63     conv2d_66_output                  1280/1280       activations/**default**   int8_t          int8/sa                          
64     dense_68_output                   2/2             activations/**default**   int8_t          int8/sa                          
65     dense_68_0_conversion_output      2/8             activations/**default**   float           float                            
66     nl_69_output                      2/8             activations/**default**   float           float                            
67     nl_69_0_conversion_output         2/2             user/                     uint8_t         int8/ua                   /output
68     conv2d_1_weights                  432/432         weights/                  const int8_t    int8/sa/channel (16)             
69     conv2d_1_bias                     16/64           weights/                  const int32_t   int32/sa/channel (16)            
70     conv2d_2_weights                  144/144         weights/                  const int8_t    int8/sa/channel (16)             
71     conv2d_2_bias                     16/64           weights/                  const int32_t   int32/sa/channel (16)            
72     conv2d_3_weights                  128/128         weights/                  const int8_t    int8/sa/channel (8)              
73     conv2d_3_bias                     8/32            weights/                  const int32_t   int32/sa/channel (8)             
74     conv2d_4_weights                  384/384         weights/                  const int8_t    int8/sa/channel (48)             
75     conv2d_4_bias                     48/192          weights/                  const int32_t   int32/sa/channel (48)            
76     conv2d_6_weights                  432/432         weights/                  const int8_t    int8/sa/channel (48)             
77     conv2d_6_bias                     48/192          weights/                  const int32_t   int32/sa/channel (48)            
78     conv2d_7_weights                  384/384         weights/                  const int8_t    int8/sa/channel (8)              
79     conv2d_7_bias                     8/32            weights/                  const int32_t   int32/sa/channel (8)             
80     conv2d_8_weights                  384/384         weights/                  const int8_t    int8/sa/channel (48)             
81     conv2d_8_bias                     48/192          weights/                  const int32_t   int32/sa/channel (48)            
82     conv2d_9_weights                  432/432         weights/                  const int8_t    int8/sa/channel (48)             
83     conv2d_9_bias                     48/192          weights/                  const int32_t   int32/sa/channel (48)            
84     conv2d_10_weights                 384/384         weights/                  const int8_t    int8/sa/channel (8)              
85     conv2d_10_bias                    8/32            weights/                  const int32_t   int32/sa/channel (8)             
86     conv2d_12_weights                 384/384         weights/                  const int8_t    int8/sa/channel (48)             
87     conv2d_12_bias                    48/192          weights/                  const int32_t   int32/sa/channel (48)            
88     conv2d_14_weights                 432/432         weights/                  const int8_t    int8/sa/channel (48)             
89     conv2d_14_bias                    48/192          weights/                  const int32_t   int32/sa/channel (48)            
90     conv2d_15_weights                 768/768         weights/                  const int8_t    int8/sa/channel (16)             
91     conv2d_15_bias                    16/64           weights/                  const int32_t   int32/sa/channel (16)            
92     conv2d_16_weights                 1536/1536       weights/                  const int8_t    int8/sa/channel (96)             
93     conv2d_16_bias                    96/384          weights/                  const int32_t   int32/sa/channel (96)            
94     conv2d_17_weights                 864/864         weights/                  const int8_t    int8/sa/channel (96)             
95     conv2d_17_bias                    96/384          weights/                  const int32_t   int32/sa/channel (96)            
96     conv2d_18_weights                 1536/1536       weights/                  const int8_t    int8/sa/channel (16)             
97     conv2d_18_bias                    16/64           weights/                  const int32_t   int32/sa/channel (16)            
98     conv2d_20_weights                 1536/1536       weights/                  const int8_t    int8/sa/channel (96)             
99     conv2d_20_bias                    96/384          weights/                  const int32_t   int32/sa/channel (96)            
100    conv2d_21_weights                 864/864         weights/                  const int8_t    int8/sa/channel (96)             
101    conv2d_21_bias                    96/384          weights/                  const int32_t   int32/sa/channel (96)            
102    conv2d_22_weights                 1536/1536       weights/                  const int8_t    int8/sa/channel (16)             
103    conv2d_22_bias                    16/64           weights/                  const int32_t   int32/sa/channel (16)            
104    conv2d_24_weights                 1536/1536       weights/                  const int8_t    int8/sa/channel (96)             
105    conv2d_24_bias                    96/384          weights/                  const int32_t   int32/sa/channel (96)            
106    conv2d_26_weights                 864/864         weights/                  const int8_t    int8/sa/channel (96)             
107    conv2d_26_bias                    96/384          weights/                  const int32_t   int32/sa/channel (96)            
108    conv2d_27_weights                 2304/2304       weights/                  const int8_t    int8/sa/channel (24)             
109    conv2d_27_bias                    24/96           weights/                  const int32_t   int32/sa/channel (24)            
110    conv2d_28_weights                 3456/3456       weights/                  const int8_t    int8/sa/channel (144)            
111    conv2d_28_bias                    144/576         weights/                  const int32_t   int32/sa/channel (144)           
112    conv2d_29_weights                 1296/1296       weights/                  const int8_t    int8/sa/channel (144)            
113    conv2d_29_bias                    144/576         weights/                  const int32_t   int32/sa/channel (144)           
114    conv2d_30_weights                 3456/3456       weights/                  const int8_t    int8/sa/channel (24)             
115    conv2d_30_bias                    24/96           weights/                  const int32_t   int32/sa/channel (24)            
116    conv2d_32_weights                 3456/3456       weights/                  const int8_t    int8/sa/channel (144)            
117    conv2d_32_bias                    144/576         weights/                  const int32_t   int32/sa/channel (144)           
118    conv2d_33_weights                 1296/1296       weights/                  const int8_t    int8/sa/channel (144)            
119    conv2d_33_bias                    144/576         weights/                  const int32_t   int32/sa/channel (144)           
120    conv2d_34_weights                 3456/3456       weights/                  const int8_t    int8/sa/channel (24)             
121    conv2d_34_bias                    24/96           weights/                  const int32_t   int32/sa/channel (24)            
122    conv2d_36_weights                 3456/3456       weights/                  const int8_t    int8/sa/channel (144)            
123    conv2d_36_bias                    144/576         weights/                  const int32_t   int32/sa/channel (144)           
124    conv2d_37_weights                 1296/1296       weights/                  const int8_t    int8/sa/channel (144)            
125    conv2d_37_bias                    144/576         weights/                  const int32_t   int32/sa/channel (144)           
126    conv2d_38_weights                 3456/3456       weights/                  const int8_t    int8/sa/channel (24)             
127    conv2d_38_bias                    24/96           weights/                  const int32_t   int32/sa/channel (24)            
128    conv2d_40_weights                 3456/3456       weights/                  const int8_t    int8/sa/channel (144)            
129    conv2d_40_bias                    144/576         weights/                  const int32_t   int32/sa/channel (144)           
130    conv2d_41_weights                 1296/1296       weights/                  const int8_t    int8/sa/channel (144)            
131    conv2d_41_bias                    144/576         weights/                  const int32_t   int32/sa/channel (144)           
132    conv2d_42_weights                 4608/4608       weights/                  const int8_t    int8/sa/channel (32)             
133    conv2d_42_bias                    32/128          weights/                  const int32_t   int32/sa/channel (32)            
134    conv2d_43_weights                 6144/6144       weights/                  const int8_t    int8/sa/channel (192)            
135    conv2d_43_bias                    192/768         weights/                  const int32_t   int32/sa/channel (192)           
136    conv2d_44_weights                 1728/1728       weights/                  const int8_t    int8/sa/channel (192)            
137    conv2d_44_bias                    192/768         weights/                  const int32_t   int32/sa/channel (192)           
138    conv2d_45_weights                 6144/6144       weights/                  const int8_t    int8/sa/channel (32)             
139    conv2d_45_bias                    32/128          weights/                  const int32_t   int32/sa/channel (32)            
140    conv2d_47_weights                 6144/6144       weights/                  const int8_t    int8/sa/channel (192)            
141    conv2d_47_bias                    192/768         weights/                  const int32_t   int32/sa/channel (192)           
142    conv2d_48_weights                 1728/1728       weights/                  const int8_t    int8/sa/channel (192)            
143    conv2d_48_bias                    192/768         weights/                  const int32_t   int32/sa/channel (192)           
144    conv2d_49_weights                 6144/6144       weights/                  const int8_t    int8/sa/channel (32)             
145    conv2d_49_bias                    32/128          weights/                  const int32_t   int32/sa/channel (32)            
146    conv2d_51_weights                 6144/6144       weights/                  const int8_t    int8/sa/channel (192)            
147    conv2d_51_bias                    192/768         weights/                  const int32_t   int32/sa/channel (192)           
148    conv2d_53_weights                 1728/1728       weights/                  const int8_t    int8/sa/channel (192)            
149    conv2d_53_bias                    192/768         weights/                  const int32_t   int32/sa/channel (192)           
150    conv2d_54_weights                 10752/10752     weights/                  const int8_t    int8/sa/channel (56)             
151    conv2d_54_bias                    56/224          weights/                  const int32_t   int32/sa/channel (56)            
152    conv2d_55_weights                 18816/18816     weights/                  const int8_t    int8/sa/channel (336)            
153    conv2d_55_bias                    336/1344        weights/                  const int32_t   int32/sa/channel (336)           
154    conv2d_56_weights                 3024/3024       weights/                  const int8_t    int8/sa/channel (336)            
155    conv2d_56_bias                    336/1344        weights/                  const int32_t   int32/sa/channel (336)           
156    conv2d_57_weights                 18816/18816     weights/                  const int8_t    int8/sa/channel (56)             
157    conv2d_57_bias                    56/224          weights/                  const int32_t   int32/sa/channel (56)            
158    conv2d_59_weights                 18816/18816     weights/                  const int8_t    int8/sa/channel (336)            
159    conv2d_59_bias                    336/1344        weights/                  const int32_t   int32/sa/channel (336)           
160    conv2d_60_weights                 3024/3024       weights/                  const int8_t    int8/sa/channel (336)            
161    conv2d_60_bias                    336/1344        weights/                  const int32_t   int32/sa/channel (336)           
162    conv2d_61_weights                 18816/18816     weights/                  const int8_t    int8/sa/channel (56)             
163    conv2d_61_bias                    56/224          weights/                  const int32_t   int32/sa/channel (56)            
164    conv2d_63_weights                 18816/18816     weights/                  const int8_t    int8/sa/channel (336)            
165    conv2d_63_bias                    336/1344        weights/                  const int32_t   int32/sa/channel (336)           
166    conv2d_64_weights                 3024/3024       weights/                  const int8_t    int8/sa/channel (336)            
167    conv2d_64_bias                    336/1344        weights/                  const int32_t   int32/sa/channel (336)           
168    conv2d_65_weights                 37632/37632     weights/                  const int8_t    int8/sa/channel (112)            
169    conv2d_65_bias                    112/448         weights/                  const int32_t   int32/sa/channel (112)           
170    conv2d_66_weights                 143360/143360   weights/                  const int8_t    int8/sa/channel (1280)           
171    conv2d_66_bias                    1280/5120       weights/                  const int32_t   int32/sa/channel (1280)          
172    dense_68_weights                  2560/2560       weights/                  const int8_t    int8/sa                          
173    dense_68_bias                     2/8             weights/                  const int32_t   int32/sa                         
174    conv2d_1_scratch0                 1196/1196       activations/**default**   int8_t          int/ss                           
175    conv2d_1_scratch1                 65536/65536     activations/**default**   int8_t          int8/sa                          
176    conv2d_2_scratch0                 593/593         activations/**default**   int8_t          int/ss                           
177    conv2d_2_scratch1                 65536/65536     activations/**default**   int8_t          int8/sa                          
178    conv2d_3_scratch0                 144/144         activations/**default**   int8_t          int/ss                           
179    conv2d_4_scratch0                 512/512         activations/**default**   int8_t          int/ss                           
180    conv2d_4_scratch1                 196608/196608   activations/**default**   int8_t          int8/sa                          
181    conv2d_6_scratch0                 1777/1777       activations/**default**   int8_t          int/ss                           
182    conv2d_6_scratch1                 49152/49152     activations/**default**   int8_t          int8/sa                          
183    conv2d_7_scratch0                 272/272         activations/**default**   int8_t          int/ss                           
184    conv2d_8_scratch0                 512/512         activations/**default**   int8_t          int/ss                           
185    conv2d_8_scratch1                 49152/49152     activations/**default**   int8_t          int8/sa                          
186    conv2d_9_scratch0                 1777/1777       activations/**default**   int8_t          int/ss                           
187    conv2d_9_scratch1                 49152/49152     activations/**default**   int8_t          int8/sa                          
188    conv2d_10_scratch0                272/272         activations/**default**   int8_t          int/ss                           
189    conv2d_12_scratch0                512/512         activations/**default**   int8_t          int/ss                           
190    conv2d_12_scratch1                49152/49152     activations/**default**   int8_t          int8/sa                          
191    conv2d_14_scratch0                1777/1777       activations/**default**   int8_t          int/ss                           
192    conv2d_14_scratch1                12288/12288     activations/**default**   int8_t          int8/sa                          
193    conv2d_15_scratch0                352/352         activations/**default**   int8_t          int/ss                           
194    conv2d_16_scratch0                1024/1024       activations/**default**   int8_t          int/ss                           
195    conv2d_16_scratch1                24576/24576     activations/**default**   int8_t          int8/sa                          
196    conv2d_17_scratch0                3553/3553       activations/**default**   int8_t          int/ss                           
197    conv2d_17_scratch1                24576/24576     activations/**default**   int8_t          int8/sa                          
198    conv2d_18_scratch0                544/544         activations/**default**   int8_t          int/ss                           
199    conv2d_20_scratch0                1024/1024       activations/**default**   int8_t          int/ss                           
200    conv2d_20_scratch1                24576/24576     activations/**default**   int8_t          int8/sa                          
201    conv2d_21_scratch0                3553/3553       activations/**default**   int8_t          int/ss                           
202    conv2d_21_scratch1                24576/24576     activations/**default**   int8_t          int8/sa                          
203    conv2d_22_scratch0                544/544         activations/**default**   int8_t          int/ss                           
204    conv2d_24_scratch0                1024/1024       activations/**default**   int8_t          int/ss                           
205    conv2d_24_scratch1                24576/24576     activations/**default**   int8_t          int8/sa                          
206    conv2d_26_scratch0                3553/3553       activations/**default**   int8_t          int/ss                           
207    conv2d_26_scratch1                6144/6144       activations/**default**   int8_t          int8/sa                          
208    conv2d_27_scratch0                624/624         activations/**default**   int8_t          int/ss                           
209    conv2d_28_scratch0                1536/1536       activations/**default**   int8_t          int/ss                           
210    conv2d_28_scratch1                9216/9216       activations/**default**   int8_t          int8/sa                          
211    conv2d_29_scratch0                5329/5329       activations/**default**   int8_t          int/ss                           
212    conv2d_29_scratch1                9216/9216       activations/**default**   int8_t          int8/sa                          
213    conv2d_30_scratch0                816/816         activations/**default**   int8_t          int/ss                           
214    conv2d_32_scratch0                1536/1536       activations/**default**   int8_t          int/ss                           
215    conv2d_32_scratch1                9216/9216       activations/**default**   int8_t          int8/sa                          
216    conv2d_33_scratch0                5329/5329       activations/**default**   int8_t          int/ss                           
217    conv2d_33_scratch1                9216/9216       activations/**default**   int8_t          int8/sa                          
218    conv2d_34_scratch0                816/816         activations/**default**   int8_t          int/ss                           
219    conv2d_36_scratch0                1536/1536       activations/**default**   int8_t          int/ss                           
220    conv2d_36_scratch1                9216/9216       activations/**default**   int8_t          int8/sa                          
221    conv2d_37_scratch0                5329/5329       activations/**default**   int8_t          int/ss                           
222    conv2d_37_scratch1                9216/9216       activations/**default**   int8_t          int8/sa                          
223    conv2d_38_scratch0                816/816         activations/**default**   int8_t          int/ss                           
224    conv2d_40_scratch0                1536/1536       activations/**default**   int8_t          int/ss                           
225    conv2d_40_scratch1                9216/9216       activations/**default**   int8_t          int8/sa                          
226    conv2d_41_scratch0                5329/5329       activations/**default**   int8_t          int/ss                           
227    conv2d_41_scratch1                9216/9216       activations/**default**   int8_t          int8/sa                          
228    conv2d_42_scratch0                896/896         activations/**default**   int8_t          int/ss                           
229    conv2d_43_scratch0                2048/2048       activations/**default**   int8_t          int/ss                           
230    conv2d_43_scratch1                12288/12288     activations/**default**   int8_t          int8/sa                          
231    conv2d_44_scratch0                7105/7105       activations/**default**   int8_t          int/ss                           
232    conv2d_44_scratch1                12288/12288     activations/**default**   int8_t          int8/sa                          
233    conv2d_45_scratch0                1088/1088       activations/**default**   int8_t          int/ss                           
234    conv2d_47_scratch0                2048/2048       activations/**default**   int8_t          int/ss                           
235    conv2d_47_scratch1                12288/12288     activations/**default**   int8_t          int8/sa                          
236    conv2d_48_scratch0                7105/7105       activations/**default**   int8_t          int/ss                           
237    conv2d_48_scratch1                12288/12288     activations/**default**   int8_t          int8/sa                          
238    conv2d_49_scratch0                1088/1088       activations/**default**   int8_t          int/ss                           
239    conv2d_51_scratch0                2048/2048       activations/**default**   int8_t          int/ss                           
240    conv2d_51_scratch1                12288/12288     activations/**default**   int8_t          int8/sa                          
241    conv2d_53_scratch0                7105/7105       activations/**default**   int8_t          int/ss                           
242    conv2d_53_scratch1                3072/3072       activations/**default**   int8_t          int8/sa                          
243    conv2d_54_scratch0                1328/1328       activations/**default**   int8_t          int/ss                           
244    conv2d_55_scratch0                3584/3584       activations/**default**   int8_t          int/ss                           
245    conv2d_55_scratch1                5376/5376       activations/**default**   int8_t          int8/sa                          
246    conv2d_56_scratch0                12433/12433     activations/**default**   int8_t          int/ss                           
247    conv2d_56_scratch1                5376/5376       activations/**default**   int8_t          int8/sa                          
248    conv2d_57_scratch0                1904/1904       activations/**default**   int8_t          int/ss                           
249    conv2d_59_scratch0                3584/3584       activations/**default**   int8_t          int/ss                           
250    conv2d_59_scratch1                5376/5376       activations/**default**   int8_t          int8/sa                          
251    conv2d_60_scratch0                12433/12433     activations/**default**   int8_t          int/ss                           
252    conv2d_60_scratch1                5376/5376       activations/**default**   int8_t          int8/sa                          
253    conv2d_61_scratch0                1904/1904       activations/**default**   int8_t          int/ss                           
254    conv2d_63_scratch0                3584/3584       activations/**default**   int8_t          int/ss                           
255    conv2d_63_scratch1                5376/5376       activations/**default**   int8_t          int8/sa                          
256    conv2d_64_scratch0                12433/12433     activations/**default**   int8_t          int/ss                           
257    conv2d_64_scratch1                5376/5376       activations/**default**   int8_t          int8/sa                          
258    conv2d_65_scratch0                2464/2464       activations/**default**   int8_t          int/ss                           
259    conv2d_66_scratch0                13248/13248     activations/**default**   int8_t          int/ss                           
260    conv2d_66_scratch1                20480/20480     activations/**default**   int8_t          int8/sa                          
261    conv2d_66_scratch2                20480/20480     activations/**default**   int8_t          int8/sa                          
-------------------------------------------------------------------------------------------------------------------------------------

C-Layers (67)
------------------------------------------------------------------------------------------------------------------------------------
c_id   name (*_layer)          id   layer_type         macc      rom      tensors                              shape (array id)    
------------------------------------------------------------------------------------------------------------------------------------
0      conversion_0            0    conv               98304     0        I: serving_default_input_20_output   (1,128,128,3) (0)   
                                                                          O: conversion_0_output               (1,128,128,3) (1)   
------------------------------------------------------------------------------------------------------------------------------------
1      conv2d_1                1    conv2d             1769488   496      I: conversion_0_output               (1,128,128,3) (1)   
                                                                          S: conv2d_1_scratch0                                     
                                                                          S: conv2d_1_scratch1                                     
                                                                          W: conv2d_1_weights                  (3,16,3,3) (68)     
                                                                          W: conv2d_1_bias                     (1,1,1,16) (69)     
                                                                          O: conv2d_1_output                   (1,64,64,16) (2)    
------------------------------------------------------------------------------------------------------------------------------------
2      conv2d_2                2    conv2d             589840    208      I: conv2d_1_output                   (1,64,64,16) (2)    
                                                                          S: conv2d_2_scratch0                                     
                                                                          S: conv2d_2_scratch1                                     
                                                                          W: conv2d_2_weights                  (16,1,3,3) (70)     
                                                                          W: conv2d_2_bias                     (1,1,1,16) (71)     
                                                                          O: conv2d_2_output                   (1,64,64,16) (3)    
------------------------------------------------------------------------------------------------------------------------------------
3      conv2d_3                3    conv2d             524296    160      I: conv2d_2_output                   (1,64,64,16) (3)    
                                                                          S: conv2d_3_scratch0                                     
                                                                          W: conv2d_3_weights                  (16,8,1,1) (72)     
                                                                          W: conv2d_3_bias                     (1,1,1,8) (73)      
                                                                          O: conv2d_3_output                   (1,64,64,8) (4)     
------------------------------------------------------------------------------------------------------------------------------------
4      conv2d_4                4    conv2d             1572912   576      I: conv2d_3_output                   (1,64,64,8) (4)     
                                                                          S: conv2d_4_scratch0                                     
                                                                          S: conv2d_4_scratch1                                     
                                                                          W: conv2d_4_weights                  (8,48,1,1) (74)     
                                                                          W: conv2d_4_bias                     (1,1,1,48) (75)     
                                                                          O: conv2d_4_output                   (1,64,64,48) (5)    
------------------------------------------------------------------------------------------------------------------------------------
5      conv2d_6                6    conv2d             442416    624      I: conv2d_4_output                   (1,64,64,48) (5)    
                                                                          S: conv2d_6_scratch0                                     
                                                                          S: conv2d_6_scratch1                                     
                                                                          W: conv2d_6_weights                  (48,1,3,3) (76)     
                                                                          W: conv2d_6_bias                     (1,1,1,48) (77)     
                                                                          O: conv2d_6_output                   (1,32,32,48) (6)    
------------------------------------------------------------------------------------------------------------------------------------
6      conv2d_7                7    conv2d             393224    416      I: conv2d_6_output                   (1,32,32,48) (6)    
                                                                          S: conv2d_7_scratch0                                     
                                                                          W: conv2d_7_weights                  (48,8,1,1) (78)     
                                                                          W: conv2d_7_bias                     (1,1,1,8) (79)      
                                                                          O: conv2d_7_output                   (1,32,32,8) (7)     
------------------------------------------------------------------------------------------------------------------------------------
7      conv2d_8                8    conv2d             393264    576      I: conv2d_7_output                   (1,32,32,8) (7)     
                                                                          S: conv2d_8_scratch0                                     
                                                                          S: conv2d_8_scratch1                                     
                                                                          W: conv2d_8_weights                  (8,48,1,1) (80)     
                                                                          W: conv2d_8_bias                     (1,1,1,48) (81)     
                                                                          O: conv2d_8_output                   (1,32,32,48) (8)    
------------------------------------------------------------------------------------------------------------------------------------
8      conv2d_9                9    conv2d             442416    624      I: conv2d_8_output                   (1,32,32,48) (8)    
                                                                          S: conv2d_9_scratch0                                     
                                                                          S: conv2d_9_scratch1                                     
                                                                          W: conv2d_9_weights                  (48,1,3,3) (82)     
                                                                          W: conv2d_9_bias                     (1,1,1,48) (83)     
                                                                          O: conv2d_9_output                   (1,32,32,48) (9)    
------------------------------------------------------------------------------------------------------------------------------------
9      conv2d_10               10   conv2d             393224    416      I: conv2d_9_output                   (1,32,32,48) (9)    
                                                                          S: conv2d_10_scratch0                                    
                                                                          W: conv2d_10_weights                 (48,8,1,1) (84)     
                                                                          W: conv2d_10_bias                    (1,1,1,8) (85)      
                                                                          O: conv2d_10_output                  (1,32,32,8) (10)    
------------------------------------------------------------------------------------------------------------------------------------
10     eltwise_11              11   eltwise_integer    8192      0        I: conv2d_7_output                   (1,32,32,8) (7)     
                                                                          I: conv2d_10_output                  (1,32,32,8) (10)    
                                                                          O: eltwise_11_output                 (1,32,32,8) (11)    
------------------------------------------------------------------------------------------------------------------------------------
11     conv2d_12               12   conv2d             393264    576      I: eltwise_11_output                 (1,32,32,8) (11)    
                                                                          S: conv2d_12_scratch0                                    
                                                                          S: conv2d_12_scratch1                                    
                                                                          W: conv2d_12_weights                 (8,48,1,1) (86)     
                                                                          W: conv2d_12_bias                    (1,1,1,48) (87)     
                                                                          O: conv2d_12_output                  (1,32,32,48) (12)   
------------------------------------------------------------------------------------------------------------------------------------
12     conv2d_14               14   conv2d             110640    624      I: conv2d_12_output                  (1,32,32,48) (12)   
                                                                          S: conv2d_14_scratch0                                    
                                                                          S: conv2d_14_scratch1                                    
                                                                          W: conv2d_14_weights                 (48,1,3,3) (88)     
                                                                          W: conv2d_14_bias                    (1,1,1,48) (89)     
                                                                          O: conv2d_14_output                  (1,16,16,48) (13)   
------------------------------------------------------------------------------------------------------------------------------------
13     conv2d_15               15   conv2d             196624    832      I: conv2d_14_output                  (1,16,16,48) (13)   
                                                                          S: conv2d_15_scratch0                                    
                                                                          W: conv2d_15_weights                 (48,16,1,1) (90)    
                                                                          W: conv2d_15_bias                    (1,1,1,16) (91)     
                                                                          O: conv2d_15_output                  (1,16,16,16) (14)   
------------------------------------------------------------------------------------------------------------------------------------
14     conv2d_16               16   conv2d             393312    1920     I: conv2d_15_output                  (1,16,16,16) (14)   
                                                                          S: conv2d_16_scratch0                                    
                                                                          S: conv2d_16_scratch1                                    
                                                                          W: conv2d_16_weights                 (16,96,1,1) (92)    
                                                                          W: conv2d_16_bias                    (1,1,1,96) (93)     
                                                                          O: conv2d_16_output                  (1,16,16,96) (15)   
------------------------------------------------------------------------------------------------------------------------------------
15     conv2d_17               17   conv2d             221280    1248     I: conv2d_16_output                  (1,16,16,96) (15)   
                                                                          S: conv2d_17_scratch0                                    
                                                                          S: conv2d_17_scratch1                                    
                                                                          W: conv2d_17_weights                 (96,1,3,3) (94)     
                                                                          W: conv2d_17_bias                    (1,1,1,96) (95)     
                                                                          O: conv2d_17_output                  (1,16,16,96) (16)   
------------------------------------------------------------------------------------------------------------------------------------
16     conv2d_18               18   conv2d             393232    1600     I: conv2d_17_output                  (1,16,16,96) (16)   
                                                                          S: conv2d_18_scratch0                                    
                                                                          W: conv2d_18_weights                 (96,16,1,1) (96)    
                                                                          W: conv2d_18_bias                    (1,1,1,16) (97)     
                                                                          O: conv2d_18_output                  (1,16,16,16) (17)   
------------------------------------------------------------------------------------------------------------------------------------
17     eltwise_19              19   eltwise_integer    4096      0        I: conv2d_15_output                  (1,16,16,16) (14)   
                                                                          I: conv2d_18_output                  (1,16,16,16) (17)   
                                                                          O: eltwise_19_output                 (1,16,16,16) (18)   
------------------------------------------------------------------------------------------------------------------------------------
18     conv2d_20               20   conv2d             393312    1920     I: eltwise_19_output                 (1,16,16,16) (18)   
                                                                          S: conv2d_20_scratch0                                    
                                                                          S: conv2d_20_scratch1                                    
                                                                          W: conv2d_20_weights                 (16,96,1,1) (98)    
                                                                          W: conv2d_20_bias                    (1,1,1,96) (99)     
                                                                          O: conv2d_20_output                  (1,16,16,96) (19)   
------------------------------------------------------------------------------------------------------------------------------------
19     conv2d_21               21   conv2d             221280    1248     I: conv2d_20_output                  (1,16,16,96) (19)   
                                                                          S: conv2d_21_scratch0                                    
                                                                          S: conv2d_21_scratch1                                    
                                                                          W: conv2d_21_weights                 (96,1,3,3) (100)    
                                                                          W: conv2d_21_bias                    (1,1,1,96) (101)    
                                                                          O: conv2d_21_output                  (1,16,16,96) (20)   
------------------------------------------------------------------------------------------------------------------------------------
20     conv2d_22               22   conv2d             393232    1600     I: conv2d_21_output                  (1,16,16,96) (20)   
                                                                          S: conv2d_22_scratch0                                    
                                                                          W: conv2d_22_weights                 (96,16,1,1) (102)   
                                                                          W: conv2d_22_bias                    (1,1,1,16) (103)    
                                                                          O: conv2d_22_output                  (1,16,16,16) (21)   
------------------------------------------------------------------------------------------------------------------------------------
21     eltwise_23              23   eltwise_integer    4096      0        I: eltwise_19_output                 (1,16,16,16) (18)   
                                                                          I: conv2d_22_output                  (1,16,16,16) (21)   
                                                                          O: eltwise_23_output                 (1,16,16,16) (22)   
------------------------------------------------------------------------------------------------------------------------------------
22     conv2d_24               24   conv2d             393312    1920     I: eltwise_23_output                 (1,16,16,16) (22)   
                                                                          S: conv2d_24_scratch0                                    
                                                                          S: conv2d_24_scratch1                                    
                                                                          W: conv2d_24_weights                 (16,96,1,1) (104)   
                                                                          W: conv2d_24_bias                    (1,1,1,96) (105)    
                                                                          O: conv2d_24_output                  (1,16,16,96) (23)   
------------------------------------------------------------------------------------------------------------------------------------
23     conv2d_26               26   conv2d             55392     1248     I: conv2d_24_output                  (1,16,16,96) (23)   
                                                                          S: conv2d_26_scratch0                                    
                                                                          S: conv2d_26_scratch1                                    
                                                                          W: conv2d_26_weights                 (96,1,3,3) (106)    
                                                                          W: conv2d_26_bias                    (1,1,1,96) (107)    
                                                                          O: conv2d_26_output                  (1,8,8,96) (24)     
------------------------------------------------------------------------------------------------------------------------------------
24     conv2d_27               27   conv2d             147480    2400     I: conv2d_26_output                  (1,8,8,96) (24)     
                                                                          S: conv2d_27_scratch0                                    
                                                                          W: conv2d_27_weights                 (96,24,1,1) (108)   
                                                                          W: conv2d_27_bias                    (1,1,1,24) (109)    
                                                                          O: conv2d_27_output                  (1,8,8,24) (25)     
------------------------------------------------------------------------------------------------------------------------------------
25     conv2d_28               28   conv2d             221328    4032     I: conv2d_27_output                  (1,8,8,24) (25)     
                                                                          S: conv2d_28_scratch0                                    
                                                                          S: conv2d_28_scratch1                                    
                                                                          W: conv2d_28_weights                 (24,144,1,1) (110)  
                                                                          W: conv2d_28_bias                    (1,1,1,144) (111)   
                                                                          O: conv2d_28_output                  (1,8,8,144) (26)    
------------------------------------------------------------------------------------------------------------------------------------
26     conv2d_29               29   conv2d             83088     1872     I: conv2d_28_output                  (1,8,8,144) (26)    
                                                                          S: conv2d_29_scratch0                                    
                                                                          S: conv2d_29_scratch1                                    
                                                                          W: conv2d_29_weights                 (144,1,3,3) (112)   
                                                                          W: conv2d_29_bias                    (1,1,1,144) (113)   
                                                                          O: conv2d_29_output                  (1,8,8,144) (27)    
------------------------------------------------------------------------------------------------------------------------------------
27     conv2d_30               30   conv2d             221208    3552     I: conv2d_29_output                  (1,8,8,144) (27)    
                                                                          S: conv2d_30_scratch0                                    
                                                                          W: conv2d_30_weights                 (144,24,1,1) (114)  
                                                                          W: conv2d_30_bias                    (1,1,1,24) (115)    
                                                                          O: conv2d_30_output                  (1,8,8,24) (28)     
------------------------------------------------------------------------------------------------------------------------------------
28     eltwise_31              31   eltwise_integer    1536      0        I: conv2d_27_output                  (1,8,8,24) (25)     
                                                                          I: conv2d_30_output                  (1,8,8,24) (28)     
                                                                          O: eltwise_31_output                 (1,8,8,24) (29)     
------------------------------------------------------------------------------------------------------------------------------------
29     conv2d_32               32   conv2d             221328    4032     I: eltwise_31_output                 (1,8,8,24) (29)     
                                                                          S: conv2d_32_scratch0                                    
                                                                          S: conv2d_32_scratch1                                    
                                                                          W: conv2d_32_weights                 (24,144,1,1) (116)  
                                                                          W: conv2d_32_bias                    (1,1,1,144) (117)   
                                                                          O: conv2d_32_output                  (1,8,8,144) (30)    
------------------------------------------------------------------------------------------------------------------------------------
30     conv2d_33               33   conv2d             83088     1872     I: conv2d_32_output                  (1,8,8,144) (30)    
                                                                          S: conv2d_33_scratch0                                    
                                                                          S: conv2d_33_scratch1                                    
                                                                          W: conv2d_33_weights                 (144,1,3,3) (118)   
                                                                          W: conv2d_33_bias                    (1,1,1,144) (119)   
                                                                          O: conv2d_33_output                  (1,8,8,144) (31)    
------------------------------------------------------------------------------------------------------------------------------------
31     conv2d_34               34   conv2d             221208    3552     I: conv2d_33_output                  (1,8,8,144) (31)    
                                                                          S: conv2d_34_scratch0                                    
                                                                          W: conv2d_34_weights                 (144,24,1,1) (120)  
                                                                          W: conv2d_34_bias                    (1,1,1,24) (121)    
                                                                          O: conv2d_34_output                  (1,8,8,24) (32)     
------------------------------------------------------------------------------------------------------------------------------------
32     eltwise_35              35   eltwise_integer    1536      0        I: eltwise_31_output                 (1,8,8,24) (29)     
                                                                          I: conv2d_34_output                  (1,8,8,24) (32)     
                                                                          O: eltwise_35_output                 (1,8,8,24) (33)     
------------------------------------------------------------------------------------------------------------------------------------
33     conv2d_36               36   conv2d             221328    4032     I: eltwise_35_output                 (1,8,8,24) (33)     
                                                                          S: conv2d_36_scratch0                                    
                                                                          S: conv2d_36_scratch1                                    
                                                                          W: conv2d_36_weights                 (24,144,1,1) (122)  
                                                                          W: conv2d_36_bias                    (1,1,1,144) (123)   
                                                                          O: conv2d_36_output                  (1,8,8,144) (34)    
------------------------------------------------------------------------------------------------------------------------------------
34     conv2d_37               37   conv2d             83088     1872     I: conv2d_36_output                  (1,8,8,144) (34)    
                                                                          S: conv2d_37_scratch0                                    
                                                                          S: conv2d_37_scratch1                                    
                                                                          W: conv2d_37_weights                 (144,1,3,3) (124)   
                                                                          W: conv2d_37_bias                    (1,1,1,144) (125)   
                                                                          O: conv2d_37_output                  (1,8,8,144) (35)    
------------------------------------------------------------------------------------------------------------------------------------
35     conv2d_38               38   conv2d             221208    3552     I: conv2d_37_output                  (1,8,8,144) (35)    
                                                                          S: conv2d_38_scratch0                                    
                                                                          W: conv2d_38_weights                 (144,24,1,1) (126)  
                                                                          W: conv2d_38_bias                    (1,1,1,24) (127)    
                                                                          O: conv2d_38_output                  (1,8,8,24) (36)     
------------------------------------------------------------------------------------------------------------------------------------
36     eltwise_39              39   eltwise_integer    1536      0        I: eltwise_35_output                 (1,8,8,24) (33)     
                                                                          I: conv2d_38_output                  (1,8,8,24) (36)     
                                                                          O: eltwise_39_output                 (1,8,8,24) (37)     
------------------------------------------------------------------------------------------------------------------------------------
37     conv2d_40               40   conv2d             221328    4032     I: eltwise_39_output                 (1,8,8,24) (37)     
                                                                          S: conv2d_40_scratch0                                    
                                                                          S: conv2d_40_scratch1                                    
                                                                          W: conv2d_40_weights                 (24,144,1,1) (128)  
                                                                          W: conv2d_40_bias                    (1,1,1,144) (129)   
                                                                          O: conv2d_40_output                  (1,8,8,144) (38)    
------------------------------------------------------------------------------------------------------------------------------------
38     conv2d_41               41   conv2d             83088     1872     I: conv2d_40_output                  (1,8,8,144) (38)    
                                                                          S: conv2d_41_scratch0                                    
                                                                          S: conv2d_41_scratch1                                    
                                                                          W: conv2d_41_weights                 (144,1,3,3) (130)   
                                                                          W: conv2d_41_bias                    (1,1,1,144) (131)   
                                                                          O: conv2d_41_output                  (1,8,8,144) (39)    
------------------------------------------------------------------------------------------------------------------------------------
39     conv2d_42               42   conv2d             294944    4736     I: conv2d_41_output                  (1,8,8,144) (39)    
                                                                          S: conv2d_42_scratch0                                    
                                                                          W: conv2d_42_weights                 (144,32,1,1) (132)  
                                                                          W: conv2d_42_bias                    (1,1,1,32) (133)    
                                                                          O: conv2d_42_output                  (1,8,8,32) (40)     
------------------------------------------------------------------------------------------------------------------------------------
40     conv2d_43               43   conv2d             393408    6912     I: conv2d_42_output                  (1,8,8,32) (40)     
                                                                          S: conv2d_43_scratch0                                    
                                                                          S: conv2d_43_scratch1                                    
                                                                          W: conv2d_43_weights                 (32,192,1,1) (134)  
                                                                          W: conv2d_43_bias                    (1,1,1,192) (135)   
                                                                          O: conv2d_43_output                  (1,8,8,192) (41)    
------------------------------------------------------------------------------------------------------------------------------------
41     conv2d_44               44   conv2d             110784    2496     I: conv2d_43_output                  (1,8,8,192) (41)    
                                                                          S: conv2d_44_scratch0                                    
                                                                          S: conv2d_44_scratch1                                    
                                                                          W: conv2d_44_weights                 (192,1,3,3) (136)   
                                                                          W: conv2d_44_bias                    (1,1,1,192) (137)   
                                                                          O: conv2d_44_output                  (1,8,8,192) (42)    
------------------------------------------------------------------------------------------------------------------------------------
42     conv2d_45               45   conv2d             393248    6272     I: conv2d_44_output                  (1,8,8,192) (42)    
                                                                          S: conv2d_45_scratch0                                    
                                                                          W: conv2d_45_weights                 (192,32,1,1) (138)  
                                                                          W: conv2d_45_bias                    (1,1,1,32) (139)    
                                                                          O: conv2d_45_output                  (1,8,8,32) (43)     
------------------------------------------------------------------------------------------------------------------------------------
43     eltwise_46              46   eltwise_integer    2048      0        I: conv2d_42_output                  (1,8,8,32) (40)     
                                                                          I: conv2d_45_output                  (1,8,8,32) (43)     
                                                                          O: eltwise_46_output                 (1,8,8,32) (44)     
------------------------------------------------------------------------------------------------------------------------------------
44     conv2d_47               47   conv2d             393408    6912     I: eltwise_46_output                 (1,8,8,32) (44)     
                                                                          S: conv2d_47_scratch0                                    
                                                                          S: conv2d_47_scratch1                                    
                                                                          W: conv2d_47_weights                 (32,192,1,1) (140)  
                                                                          W: conv2d_47_bias                    (1,1,1,192) (141)   
                                                                          O: conv2d_47_output                  (1,8,8,192) (45)    
------------------------------------------------------------------------------------------------------------------------------------
45     conv2d_48               48   conv2d             110784    2496     I: conv2d_47_output                  (1,8,8,192) (45)    
                                                                          S: conv2d_48_scratch0                                    
                                                                          S: conv2d_48_scratch1                                    
                                                                          W: conv2d_48_weights                 (192,1,3,3) (142)   
                                                                          W: conv2d_48_bias                    (1,1,1,192) (143)   
                                                                          O: conv2d_48_output                  (1,8,8,192) (46)    
------------------------------------------------------------------------------------------------------------------------------------
46     conv2d_49               49   conv2d             393248    6272     I: conv2d_48_output                  (1,8,8,192) (46)    
                                                                          S: conv2d_49_scratch0                                    
                                                                          W: conv2d_49_weights                 (192,32,1,1) (144)  
                                                                          W: conv2d_49_bias                    (1,1,1,32) (145)    
                                                                          O: conv2d_49_output                  (1,8,8,32) (47)     
------------------------------------------------------------------------------------------------------------------------------------
47     eltwise_50              50   eltwise_integer    2048      0        I: eltwise_46_output                 (1,8,8,32) (44)     
                                                                          I: conv2d_49_output                  (1,8,8,32) (47)     
                                                                          O: eltwise_50_output                 (1,8,8,32) (48)     
------------------------------------------------------------------------------------------------------------------------------------
48     conv2d_51               51   conv2d             393408    6912     I: eltwise_50_output                 (1,8,8,32) (48)     
                                                                          S: conv2d_51_scratch0                                    
                                                                          S: conv2d_51_scratch1                                    
                                                                          W: conv2d_51_weights                 (32,192,1,1) (146)  
                                                                          W: conv2d_51_bias                    (1,1,1,192) (147)   
                                                                          O: conv2d_51_output                  (1,8,8,192) (49)    
------------------------------------------------------------------------------------------------------------------------------------
49     conv2d_53               53   conv2d             27840     2496     I: conv2d_51_output                  (1,8,8,192) (49)    
                                                                          S: conv2d_53_scratch0                                    
                                                                          S: conv2d_53_scratch1                                    
                                                                          W: conv2d_53_weights                 (192,1,3,3) (148)   
                                                                          W: conv2d_53_bias                    (1,1,1,192) (149)   
                                                                          O: conv2d_53_output                  (1,4,4,192) (50)    
------------------------------------------------------------------------------------------------------------------------------------
50     conv2d_54               54   conv2d             172088    10976    I: conv2d_53_output                  (1,4,4,192) (50)    
                                                                          S: conv2d_54_scratch0                                    
                                                                          W: conv2d_54_weights                 (192,56,1,1) (150)  
                                                                          W: conv2d_54_bias                    (1,1,1,56) (151)    
                                                                          O: conv2d_54_output                  (1,4,4,56) (51)     
------------------------------------------------------------------------------------------------------------------------------------
51     conv2d_55               55   conv2d             301392    20160    I: conv2d_54_output                  (1,4,4,56) (51)     
                                                                          S: conv2d_55_scratch0                                    
                                                                          S: conv2d_55_scratch1                                    
                                                                          W: conv2d_55_weights                 (56,336,1,1) (152)  
                                                                          W: conv2d_55_bias                    (1,1,1,336) (153)   
                                                                          O: conv2d_55_output                  (1,4,4,336) (52)    
------------------------------------------------------------------------------------------------------------------------------------
52     conv2d_56               56   conv2d             48720     4368     I: conv2d_55_output                  (1,4,4,336) (52)    
                                                                          S: conv2d_56_scratch0                                    
                                                                          S: conv2d_56_scratch1                                    
                                                                          W: conv2d_56_weights                 (336,1,3,3) (154)   
                                                                          W: conv2d_56_bias                    (1,1,1,336) (155)   
                                                                          O: conv2d_56_output                  (1,4,4,336) (53)    
------------------------------------------------------------------------------------------------------------------------------------
53     conv2d_57               57   conv2d             301112    19040    I: conv2d_56_output                  (1,4,4,336) (53)    
                                                                          S: conv2d_57_scratch0                                    
                                                                          W: conv2d_57_weights                 (336,56,1,1) (156)  
                                                                          W: conv2d_57_bias                    (1,1,1,56) (157)    
                                                                          O: conv2d_57_output                  (1,4,4,56) (54)     
------------------------------------------------------------------------------------------------------------------------------------
54     eltwise_58              58   eltwise_integer    896       0        I: conv2d_54_output                  (1,4,4,56) (51)     
                                                                          I: conv2d_57_output                  (1,4,4,56) (54)     
                                                                          O: eltwise_58_output                 (1,4,4,56) (55)     
------------------------------------------------------------------------------------------------------------------------------------
55     conv2d_59               59   conv2d             301392    20160    I: eltwise_58_output                 (1,4,4,56) (55)     
                                                                          S: conv2d_59_scratch0                                    
                                                                          S: conv2d_59_scratch1                                    
                                                                          W: conv2d_59_weights                 (56,336,1,1) (158)  
                                                                          W: conv2d_59_bias                    (1,1,1,336) (159)   
                                                                          O: conv2d_59_output                  (1,4,4,336) (56)    
------------------------------------------------------------------------------------------------------------------------------------
56     conv2d_60               60   conv2d             48720     4368     I: conv2d_59_output                  (1,4,4,336) (56)    
                                                                          S: conv2d_60_scratch0                                    
                                                                          S: conv2d_60_scratch1                                    
                                                                          W: conv2d_60_weights                 (336,1,3,3) (160)   
                                                                          W: conv2d_60_bias                    (1,1,1,336) (161)   
                                                                          O: conv2d_60_output                  (1,4,4,336) (57)    
------------------------------------------------------------------------------------------------------------------------------------
57     conv2d_61               61   conv2d             301112    19040    I: conv2d_60_output                  (1,4,4,336) (57)    
                                                                          S: conv2d_61_scratch0                                    
                                                                          W: conv2d_61_weights                 (336,56,1,1) (162)  
                                                                          W: conv2d_61_bias                    (1,1,1,56) (163)    
                                                                          O: conv2d_61_output                  (1,4,4,56) (58)     
------------------------------------------------------------------------------------------------------------------------------------
58     eltwise_62              62   eltwise_integer    896       0        I: eltwise_58_output                 (1,4,4,56) (55)     
                                                                          I: conv2d_61_output                  (1,4,4,56) (58)     
                                                                          O: eltwise_62_output                 (1,4,4,56) (59)     
------------------------------------------------------------------------------------------------------------------------------------
59     conv2d_63               63   conv2d             301392    20160    I: eltwise_62_output                 (1,4,4,56) (59)     
                                                                          S: conv2d_63_scratch0                                    
                                                                          S: conv2d_63_scratch1                                    
                                                                          W: conv2d_63_weights                 (56,336,1,1) (164)  
                                                                          W: conv2d_63_bias                    (1,1,1,336) (165)   
                                                                          O: conv2d_63_output                  (1,4,4,336) (60)    
------------------------------------------------------------------------------------------------------------------------------------
60     conv2d_64               64   conv2d             48720     4368     I: conv2d_63_output                  (1,4,4,336) (60)    
                                                                          S: conv2d_64_scratch0                                    
                                                                          S: conv2d_64_scratch1                                    
                                                                          W: conv2d_64_weights                 (336,1,3,3) (166)   
                                                                          W: conv2d_64_bias                    (1,1,1,336) (167)   
                                                                          O: conv2d_64_output                  (1,4,4,336) (61)    
------------------------------------------------------------------------------------------------------------------------------------
61     conv2d_65               65   conv2d             602224    38080    I: conv2d_64_output                  (1,4,4,336) (61)    
                                                                          S: conv2d_65_scratch0                                    
                                                                          W: conv2d_65_weights                 (336,112,1,1) (168) 
                                                                          W: conv2d_65_bias                    (1,1,1,112) (169)   
                                                                          O: conv2d_65_output                  (1,4,4,112) (62)    
------------------------------------------------------------------------------------------------------------------------------------
62     conv2d_66               67   optimized_conv2d   2315520   148480   I: conv2d_65_output                  (1,4,4,112) (62)    
                                                                          S: conv2d_66_scratch0                                    
                                                                          S: conv2d_66_scratch1                                    
                                                                          S: conv2d_66_scratch2                                    
                                                                          W: conv2d_66_weights                 (112,1280,1,1) (170)
                                                                          W: conv2d_66_bias                    (1,1,1,1280) (171)  
                                                                          O: conv2d_66_output                  (1,1,1,1280) (63)   
------------------------------------------------------------------------------------------------------------------------------------
63     dense_68                68   dense              2562      2568     I: conv2d_66_output                  (1,1,1,1280) (63)   
                                                                          W: dense_68_weights                  (1280,1,1,2) (172)  
                                                                          W: dense_68_bias                     (1,1,1,2) (173)     
                                                                          O: dense_68_output                   (1,1,1,2) (64)      
------------------------------------------------------------------------------------------------------------------------------------
64     dense_68_0_conversion   68   conv               4         0        I: dense_68_output                   (1,1,1,2) (64)      
                                                                          O: dense_68_0_conversion_output      (1,1,1,2) (65)      
------------------------------------------------------------------------------------------------------------------------------------
65     nl_69                   69   nl                 30        0        I: dense_68_0_conversion_output      (1,1,1,2) (65)      
                                                                          O: nl_69_output                      (1,1,1,2) (66)      
------------------------------------------------------------------------------------------------------------------------------------
66     nl_69_0_conversion      69   conv               4         0        I: nl_69_output                      (1,1,1,2) (66)      
                                                                          O: nl_69_0_conversion_output         (1,1,1,2) (67)      
------------------------------------------------------------------------------------------------------------------------------------



Complexity report per layer - macc=19,095,976 weights=412,776 act=229,888 ram_io=2
---------------------------------------------------------------------------------
id   name           c_macc                    c_rom                     c_id    
---------------------------------------------------------------------------------
0    conversion_0   |                  0.5%   |                  0.0%   [0]     
1    conv2d_1       ||||||||||||       9.3%   |                  0.1%   [1]     
2    conv2d_2       ||||               3.1%   |                  0.1%   [2]     
3    conv2d_3       ||||               2.7%   |                  0.0%   [3]     
4    conv2d_4       |||||||||||        8.2%   |                  0.1%   [4]     
6    conv2d_6       |||                2.3%   |                  0.2%   [5]     
7    conv2d_7       |||                2.1%   |                  0.1%   [6]     
8    conv2d_8       |||                2.1%   |                  0.1%   [7]     
9    conv2d_9       |||                2.3%   |                  0.2%   [8]     
10   conv2d_10      |||                2.1%   |                  0.1%   [9]     
11   eltwise_11     |                  0.0%   |                  0.0%   [10]    
12   conv2d_12      |||                2.1%   |                  0.1%   [11]    
14   conv2d_14      |                  0.6%   |                  0.2%   [12]    
15   conv2d_15      ||                 1.0%   |                  0.2%   [13]    
16   conv2d_16      |||                2.1%   |                  0.5%   [14]    
17   conv2d_17      ||                 1.2%   |                  0.3%   [15]    
18   conv2d_18      |||                2.1%   |                  0.4%   [16]    
19   eltwise_19     |                  0.0%   |                  0.0%   [17]    
20   conv2d_20      |||                2.1%   |                  0.5%   [18]    
21   conv2d_21      ||                 1.2%   |                  0.3%   [19]    
22   conv2d_22      |||                2.1%   |                  0.4%   [20]    
23   eltwise_23     |                  0.0%   |                  0.0%   [21]    
24   conv2d_24      |||                2.1%   |                  0.5%   [22]    
26   conv2d_26      |                  0.3%   |                  0.3%   [23]    
27   conv2d_27      |                  0.8%   |                  0.6%   [24]    
28   conv2d_28      ||                 1.2%   |                  1.0%   [25]    
29   conv2d_29      |                  0.4%   |                  0.5%   [26]    
30   conv2d_30      ||                 1.2%   |                  0.9%   [27]    
31   eltwise_31     |                  0.0%   |                  0.0%   [28]    
32   conv2d_32      ||                 1.2%   |                  1.0%   [29]    
33   conv2d_33      |                  0.4%   |                  0.5%   [30]    
34   conv2d_34      ||                 1.2%   |                  0.9%   [31]    
35   eltwise_35     |                  0.0%   |                  0.0%   [32]    
36   conv2d_36      ||                 1.2%   |                  1.0%   [33]    
37   conv2d_37      |                  0.4%   |                  0.5%   [34]    
38   conv2d_38      ||                 1.2%   |                  0.9%   [35]    
39   eltwise_39     |                  0.0%   |                  0.0%   [36]    
40   conv2d_40      ||                 1.2%   |                  1.0%   [37]    
41   conv2d_41      |                  0.4%   |                  0.5%   [38]    
42   conv2d_42      ||                 1.5%   |                  1.1%   [39]    
43   conv2d_43      |||                2.1%   |                  1.7%   [40]    
44   conv2d_44      |                  0.6%   |                  0.6%   [41]    
45   conv2d_45      |||                2.1%   |                  1.5%   [42]    
46   eltwise_46     |                  0.0%   |                  0.0%   [43]    
47   conv2d_47      |||                2.1%   |                  1.7%   [44]    
48   conv2d_48      |                  0.6%   |                  0.6%   [45]    
49   conv2d_49      |||                2.1%   |                  1.5%   [46]    
50   eltwise_50     |                  0.0%   |                  0.0%   [47]    
51   conv2d_51      |||                2.1%   |                  1.7%   [48]    
53   conv2d_53      |                  0.1%   |                  0.6%   [49]    
54   conv2d_54      ||                 0.9%   ||                 2.7%   [50]    
55   conv2d_55      ||                 1.6%   |||                4.9%   [51]    
56   conv2d_56      |                  0.3%   |                  1.1%   [52]    
57   conv2d_57      ||                 1.6%   ||                 4.6%   [53]    
58   eltwise_58     |                  0.0%   |                  0.0%   [54]    
59   conv2d_59      ||                 1.6%   |||                4.9%   [55]    
60   conv2d_60      |                  0.3%   |                  1.1%   [56]    
61   conv2d_61      ||                 1.6%   ||                 4.6%   [57]    
62   eltwise_62     |                  0.0%   |                  0.0%   [58]    
63   conv2d_63      ||                 1.6%   |||                4.9%   [59]    
64   conv2d_64      |                  0.3%   |                  1.1%   [60]    
65   conv2d_65      ||||               3.2%   ||||               9.2%   [61]    
66   conv2d_66      ||||||||||||||||  12.1%   ||||||||||||||||  36.0%   [62]    
68   dense_68       |                  0.0%   |                  0.6%   [63, 64]
69   nl_69          |                  0.0%   |                  0.0%   [65, 66]

Generated files (5)
---------------------------------------------------------------------
C:\Users\Flash\.stm32cubemx\network_output\network_config.h
C:\Users\Flash\.stm32cubemx\network_output\network.h
C:\Users\Flash\.stm32cubemx\network_output\network.c
C:\Users\Flash\.stm32cubemx\network_output\network_data.h
C:\Users\Flash\.stm32cubemx\network_output\network_data.c
