Neural Network Tools for STM32AI v1.6.0 (STM.ai v7.1.0-RC3)
Created date          : 2022-03-08 13:28:21
Parameters            : generate --name network -m D:/Flash/Documents/IESE5/Projet5A S10/yoloface-50k2_int8.tflite --type tflite --compression 1 --verbosity 1 --workspace C:\Users\Flash\AppData\Local\Temp\mxAI_workspace213821885742820012903501647495818123 --output C:\Users\Flash\.stm32cubemx\network_output --allocate-inputs

Exec/report summary (generate)
------------------------------------------------------------------------------------------------------------------------
model file            : D:\Flash\Documents\IESE5\Projet5A S10\yoloface-50k2_int8.tflite
type                  : tflite
c_name                : network
compression           : None
allocator strategy    : ['allocate-inputs']
workspace dir         : C:\Users\Flash\AppData\Local\Temp\mxAI_workspace213821885742820012903501647495818123
output dir            : C:\Users\Flash\.stm32cubemx\network_output
model_name            : yoloface50k2_int8
model_hash            : 05bca5001ebfeff5e597746bf43fd1ff
input 1/1             : 'Input'
                        12288 items, 48.00 KiB, ai_float, float, (1,64,64,3), domain:activations/**default**
output 1/1            : 'conv2d_50'
                        1152 items, 4.50 KiB, ai_float, float, (1,8,8,18), domain:user/
params #              : 9,670 items (37.77 KiB)
macc                  : 1,933,856
weights (ro)          : 38,680 B (37.77 KiB) (1 segment)
activations (rw)      : 122,184 B (119.32 KiB) (1 segment) *
ram (total)           : 126,792 B (123.82 KiB) = 122,184 + 0 + 4,608

(*) input buffers can be used from the activations buffer

Model name - yoloface50k2_int8 ['Input'] ['conv2d_50']
---------------------------------------------------------------------------------------------------------------------------------
id   layer (type)           oshape         param/size    macc      connected to   |   c_size   c_macc             c_type        
---------------------------------------------------------------------------------------------------------------------------------
0    Input (Input)          (1,64,64,3)                                           |                              
     pad_0 (Pad)            (1,65,65,3)                            Input          |                              
---------------------------------------------------------------------------------------------------------------------------------
1    conv2d_1 (Conv2D)      (1,32,32,8)    224/896       221,192   pad_0          |            +24,576(+11.1%)    conv2d()[0]   
---------------------------------------------------------------------------------------------------------------------------------
2    nl_2 (Nonlinearity)    (1,32,32,8)                  8,192     conv2d_1       |            -8,192(-100.0%)   
---------------------------------------------------------------------------------------------------------------------------------
3    conv2d_3 (Conv2D)      (1,32,32,8)    80/320        73,736    nl_2           |            +24,576(+33.3%)    conv2d()[1]   
---------------------------------------------------------------------------------------------------------------------------------
4    nl_4 (Nonlinearity)    (1,32,32,8)                  8,192     conv2d_3       |            -8,192(-100.0%)   
---------------------------------------------------------------------------------------------------------------------------------
5    conv2d_5 (Conv2D)      (1,32,32,4)    36/144        32,772    nl_4           |                               conv2d()[2]   
---------------------------------------------------------------------------------------------------------------------------------
6    conv2d_6 (Conv2D)      (1,32,32,18)   90/360        73,746    conv2d_5       |            +55,296(+75.0%)    conv2d()[3]   
---------------------------------------------------------------------------------------------------------------------------------
7    nl_7 (Nonlinearity)    (1,32,32,18)                 18,432    conv2d_6       |            -18,432(-100.0%)  
---------------------------------------------------------------------------------------------------------------------------------
8    pool_8 (Pool)          (1,16,16,18)                 294,912   nl_7           |                               pool()[11]    
---------------------------------------------------------------------------------------------------------------------------------
9    pad_9 (Pad)            (1,33,33,18)                           nl_7           |                              
---------------------------------------------------------------------------------------------------------------------------------
10   conv2d_10 (Conv2D)     (1,16,16,18)   180/720       41,490    pad_9          |            +13,824(+33.3%)    conv2d()[4]   
---------------------------------------------------------------------------------------------------------------------------------
11   nl_11 (Nonlinearity)   (1,16,16,18)                 4,608     conv2d_10      |            -4,608(-100.0%)   
---------------------------------------------------------------------------------------------------------------------------------
12   conv2d_12 (Conv2D)     (1,16,16,6)    114/456       27,654    nl_11          |                               conv2d()[5]   
---------------------------------------------------------------------------------------------------------------------------------
13   conv2d_13 (Conv2D)     (1,16,16,36)   252/1,008     55,332    conv2d_12      |            +27,648(+50.0%)    conv2d()[6]   
---------------------------------------------------------------------------------------------------------------------------------
14   nl_14 (Nonlinearity)   (1,16,16,36)                 9,216     conv2d_13      |            -9,216(-100.0%)   
---------------------------------------------------------------------------------------------------------------------------------
15   conv2d_15 (Conv2D)     (1,16,16,36)   360/1,440     82,980    nl_14          |            +27,648(+33.3%)    conv2d()[7]   
---------------------------------------------------------------------------------------------------------------------------------
16   nl_16 (Nonlinearity)   (1,16,16,36)                 9,216     conv2d_15      |            -9,216(-100.0%)   
---------------------------------------------------------------------------------------------------------------------------------
17   conv2d_17 (Conv2D)     (1,16,16,6)    222/888       55,302    nl_16          |                               conv2d()[8]   
---------------------------------------------------------------------------------------------------------------------------------
18   eltwise_18 (Eltwise)   (1,16,16,6)                  1,536     conv2d_12      |                               eltwise()[9]  
                                                                   conv2d_17      |  
---------------------------------------------------------------------------------------------------------------------------------
19   conv2d_19 (Conv2D)     (1,16,16,18)   126/504       27,666    eltwise_18     |            +13,824(+50.0%)    conv2d()[10]  
---------------------------------------------------------------------------------------------------------------------------------
20   nl_20 (Nonlinearity)   (1,16,16,18)                 4,608     conv2d_19      |            -4,608(-100.0%)   
---------------------------------------------------------------------------------------------------------------------------------
21   concat_21 (Concat)     (1,16,16,36)                           pool_8         |                               concat()[12]  
                                                                   nl_20          |  
---------------------------------------------------------------------------------------------------------------------------------
22   conv2d_22 (Conv2D)     (1,16,16,24)   888/3,552     221,208   concat_21      |            +18,432(+8.3%)     conv2d()[13]  
---------------------------------------------------------------------------------------------------------------------------------
23   nl_23 (Nonlinearity)   (1,16,16,24)                 6,144     conv2d_22      |            -6,144(-100.0%)   
---------------------------------------------------------------------------------------------------------------------------------
24   pool_24 (Pool)         (1,8,8,24)                   24,576    nl_23          |                               pool()[25]    
---------------------------------------------------------------------------------------------------------------------------------
25   pad_25 (Pad)           (1,17,17,24)                           nl_23          |                              
---------------------------------------------------------------------------------------------------------------------------------
26   conv2d_26 (Conv2D)     (1,8,8,24)     240/960       13,848    pad_25         |            +4,608(+33.3%)     conv2d()[14]  
---------------------------------------------------------------------------------------------------------------------------------
27   nl_27 (Nonlinearity)   (1,8,8,24)                   1,536     conv2d_26      |            -1,536(-100.0%)   
---------------------------------------------------------------------------------------------------------------------------------
28   conv2d_28 (Conv2D)     (1,8,8,8)      200/800       12,296    nl_27          |                               conv2d()[15]  
---------------------------------------------------------------------------------------------------------------------------------
29   conv2d_29 (Conv2D)     (1,8,8,40)     360/1,440     20,520    conv2d_28      |            +7,680(+37.4%)     conv2d()[16]  
---------------------------------------------------------------------------------------------------------------------------------
30   nl_30 (Nonlinearity)   (1,8,8,40)                   2,560     conv2d_29      |            -2,560(-100.0%)   
---------------------------------------------------------------------------------------------------------------------------------
31   conv2d_31 (Conv2D)     (1,8,8,40)     400/1,600     23,080    nl_30          |            +7,680(+33.3%)     conv2d()[17]  
---------------------------------------------------------------------------------------------------------------------------------
32   nl_32 (Nonlinearity)   (1,8,8,40)                   2,560     conv2d_31      |            -2,560(-100.0%)   
---------------------------------------------------------------------------------------------------------------------------------
33   conv2d_33 (Conv2D)     (1,8,8,8)      328/1,312     20,488    nl_32          |                               conv2d()[18]  
---------------------------------------------------------------------------------------------------------------------------------
34   eltwise_34 (Eltwise)   (1,8,8,8)                    512       conv2d_28      |                               eltwise()[19] 
                                                                   conv2d_33      |  
---------------------------------------------------------------------------------------------------------------------------------
35   conv2d_35 (Conv2D)     (1,8,8,40)     360/1,440     20,520    eltwise_34     |            +7,680(+37.4%)     conv2d()[20]  
---------------------------------------------------------------------------------------------------------------------------------
36   nl_36 (Nonlinearity)   (1,8,8,40)                   2,560     conv2d_35      |            -2,560(-100.0%)   
---------------------------------------------------------------------------------------------------------------------------------
37   conv2d_37 (Conv2D)     (1,8,8,40)     400/1,600     23,080    nl_36          |            +7,680(+33.3%)     conv2d()[21]  
---------------------------------------------------------------------------------------------------------------------------------
38   nl_38 (Nonlinearity)   (1,8,8,40)                   2,560     conv2d_37      |            -2,560(-100.0%)   
---------------------------------------------------------------------------------------------------------------------------------
39   conv2d_39 (Conv2D)     (1,8,8,8)      328/1,312     20,488    nl_38          |                               conv2d()[22]  
---------------------------------------------------------------------------------------------------------------------------------
40   eltwise_40 (Eltwise)   (1,8,8,8)                    512       eltwise_34     |                               eltwise()[23] 
                                                                   conv2d_39      |  
---------------------------------------------------------------------------------------------------------------------------------
41   conv2d_41 (Conv2D)     (1,8,8,24)     216/864       12,312    eltwise_40     |            +4,608(+37.4%)     conv2d()[24]  
---------------------------------------------------------------------------------------------------------------------------------
42   nl_42 (Nonlinearity)   (1,8,8,24)                   1,536     conv2d_41      |            -1,536(-100.0%)   
---------------------------------------------------------------------------------------------------------------------------------
43   concat_43 (Concat)     (1,8,8,48)                             pool_24        |                               concat()[26]  
                                                                   nl_42          |  
---------------------------------------------------------------------------------------------------------------------------------
44   conv2d_44 (Conv2D)     (1,8,8,40)     1,960/7,840   122,920   concat_43      |            +7,680(+6.2%)      conv2d()[27]  
---------------------------------------------------------------------------------------------------------------------------------
45   nl_45 (Nonlinearity)   (1,8,8,40)                   2,560     conv2d_44      |            -2,560(-100.0%)   
---------------------------------------------------------------------------------------------------------------------------------
46   conv2d_46 (Conv2D)     (1,8,8,40)     400/1,600     23,080    nl_45          |            +7,680(+33.3%)     conv2d()[28]  
---------------------------------------------------------------------------------------------------------------------------------
47   nl_47 (Nonlinearity)   (1,8,8,40)                   2,560     conv2d_46      |            -2,560(-100.0%)   
---------------------------------------------------------------------------------------------------------------------------------
48   conv2d_48 (Conv2D)     (1,8,8,32)     1,312/5,248   81,952    nl_47          |            +6,144(+7.5%)      conv2d()[29]  
---------------------------------------------------------------------------------------------------------------------------------
49   nl_49 (Nonlinearity)   (1,8,8,32)                   2,048     conv2d_48      |            -2,048(-100.0%)   
---------------------------------------------------------------------------------------------------------------------------------
50   conv2d_50 (Conv2D)     (1,8,8,18)     594/2,376     36,882    nl_49          |                               conv2d()/o[30]
---------------------------------------------------------------------------------------------------------------------------------
model/c-model: macc=1,755,680/1,933,856 +178,176(+10.1%) weights=38,680/38,680  activations=--/122,184 io=--/4,608



Generated C-graph summary
------------------------------------------------------------------------------------------------------------------------
model name            : yoloface50k2_int8
c-name                : network
c-node #              : 31
c-array #             : 80
activations size      : 122184 (1 segments)
weights size          : 38680 (1 segments)
macc                  : 1933856
inputs                : ['Input_output']
outputs               : ['conv2d_50_output']

C-Arrays (80)
-------------------------------------------------------------------------------------------------
c_id   name (*_array)      item/size     domain/mem-pool           c-type        fmt     comment
-------------------------------------------------------------------------------------------------
0      Input_output        12288/49152   activations/**default**   float         float   /input 
1      conv2d_1_output     8192/32768    activations/**default**   float         float          
2      conv2d_3_output     8192/32768    activations/**default**   float         float          
3      conv2d_5_output     4096/16384    activations/**default**   float         float          
4      conv2d_6_output     18432/73728   activations/**default**   float         float          
5      conv2d_10_output    4608/18432    activations/**default**   float         float          
6      conv2d_12_output    1536/6144     activations/**default**   float         float          
7      conv2d_13_output    9216/36864    activations/**default**   float         float          
8      conv2d_15_output    9216/36864    activations/**default**   float         float          
9      conv2d_17_output    1536/6144     activations/**default**   float         float          
10     eltwise_18_output   1536/6144     activations/**default**   float         float          
11     conv2d_19_output    4608/18432    activations/**default**   float         float          
12     pool_8_output       4608/18432    activations/**default**   float         float          
13     concat_21_output    9216/36864    activations/**default**   float         float          
14     conv2d_22_output    6144/24576    activations/**default**   float         float          
15     conv2d_26_output    1536/6144     activations/**default**   float         float          
16     conv2d_28_output    512/2048      activations/**default**   float         float          
17     conv2d_29_output    2560/10240    activations/**default**   float         float          
18     conv2d_31_output    2560/10240    activations/**default**   float         float          
19     conv2d_33_output    512/2048      activations/**default**   float         float          
20     eltwise_34_output   512/2048      activations/**default**   float         float          
21     conv2d_35_output    2560/10240    activations/**default**   float         float          
22     conv2d_37_output    2560/10240    activations/**default**   float         float          
23     conv2d_39_output    512/2048      activations/**default**   float         float          
24     eltwise_40_output   512/2048      activations/**default**   float         float          
25     conv2d_41_output    1536/6144     activations/**default**   float         float          
26     pool_24_output      1536/6144     activations/**default**   float         float          
27     concat_43_output    3072/12288    activations/**default**   float         float          
28     conv2d_44_output    2560/10240    activations/**default**   float         float          
29     conv2d_46_output    2560/10240    activations/**default**   float         float          
30     conv2d_48_output    2048/8192     activations/**default**   float         float          
31     conv2d_50_output    1152/4608     user/                     float         float   /output
32     conv2d_1_weights    216/864       weights/                  const float   float          
33     conv2d_1_bias       8/32          weights/                  const float   float          
34     conv2d_3_weights    72/288        weights/                  const float   float          
35     conv2d_3_bias       8/32          weights/                  const float   float          
36     conv2d_5_weights    32/128        weights/                  const float   float          
37     conv2d_5_bias       4/16          weights/                  const float   float          
38     conv2d_6_weights    72/288        weights/                  const float   float          
39     conv2d_6_bias       18/72         weights/                  const float   float          
40     conv2d_10_weights   162/648       weights/                  const float   float          
41     conv2d_10_bias      18/72         weights/                  const float   float          
42     conv2d_12_weights   108/432       weights/                  const float   float          
43     conv2d_12_bias      6/24          weights/                  const float   float          
44     conv2d_13_weights   216/864       weights/                  const float   float          
45     conv2d_13_bias      36/144        weights/                  const float   float          
46     conv2d_15_weights   324/1296      weights/                  const float   float          
47     conv2d_15_bias      36/144        weights/                  const float   float          
48     conv2d_17_weights   216/864       weights/                  const float   float          
49     conv2d_17_bias      6/24          weights/                  const float   float          
50     conv2d_19_weights   108/432       weights/                  const float   float          
51     conv2d_19_bias      18/72         weights/                  const float   float          
52     conv2d_22_weights   864/3456      weights/                  const float   float          
53     conv2d_22_bias      24/96         weights/                  const float   float          
54     conv2d_26_weights   216/864       weights/                  const float   float          
55     conv2d_26_bias      24/96         weights/                  const float   float          
56     conv2d_28_weights   192/768       weights/                  const float   float          
57     conv2d_28_bias      8/32          weights/                  const float   float          
58     conv2d_29_weights   320/1280      weights/                  const float   float          
59     conv2d_29_bias      40/160        weights/                  const float   float          
60     conv2d_31_weights   360/1440      weights/                  const float   float          
61     conv2d_31_bias      40/160        weights/                  const float   float          
62     conv2d_33_weights   320/1280      weights/                  const float   float          
63     conv2d_33_bias      8/32          weights/                  const float   float          
64     conv2d_35_weights   320/1280      weights/                  const float   float          
65     conv2d_35_bias      40/160        weights/                  const float   float          
66     conv2d_37_weights   360/1440      weights/                  const float   float          
67     conv2d_37_bias      40/160        weights/                  const float   float          
68     conv2d_39_weights   320/1280      weights/                  const float   float          
69     conv2d_39_bias      8/32          weights/                  const float   float          
70     conv2d_41_weights   192/768       weights/                  const float   float          
71     conv2d_41_bias      24/96         weights/                  const float   float          
72     conv2d_44_weights   1920/7680     weights/                  const float   float          
73     conv2d_44_bias      40/160        weights/                  const float   float          
74     conv2d_46_weights   360/1440      weights/                  const float   float          
75     conv2d_46_bias      40/160        weights/                  const float   float          
76     conv2d_48_weights   1280/5120     weights/                  const float   float          
77     conv2d_48_bias      32/128        weights/                  const float   float          
78     conv2d_50_weights   576/2304      weights/                  const float   float          
79     conv2d_50_bias      18/72         weights/                  const float   float          
-------------------------------------------------------------------------------------------------

C-Layers (31)
---------------------------------------------------------------------------------------------------
c_id   name (*_layer)   id   layer_type   macc     rom    tensors                shape (array id) 
---------------------------------------------------------------------------------------------------
0      conv2d_1         2    conv2d       245768   896    I: Input_output        (1,64,64,3) (0)  
                                                          W: conv2d_1_weights    (3,8,3,3) (32)   
                                                          W: conv2d_1_bias       (1,1,1,8) (33)   
                                                          O: conv2d_1_output     (1,32,32,8) (1)  
---------------------------------------------------------------------------------------------------
1      conv2d_3         4    conv2d       98312    320    I: conv2d_1_output     (1,32,32,8) (1)  
                                                          W: conv2d_3_weights    (1,8,3,3) (34)   
                                                          W: conv2d_3_bias       (1,1,1,8) (35)   
                                                          O: conv2d_3_output     (1,32,32,8) (2)  
---------------------------------------------------------------------------------------------------
2      conv2d_5         5    conv2d       32772    144    I: conv2d_3_output     (1,32,32,8) (2)  
                                                          W: conv2d_5_weights    (8,4,1,1) (36)   
                                                          W: conv2d_5_bias       (1,1,1,4) (37)   
                                                          O: conv2d_5_output     (1,32,32,4) (3)  
---------------------------------------------------------------------------------------------------
3      conv2d_6         7    conv2d       129042   360    I: conv2d_5_output     (1,32,32,4) (3)  
                                                          W: conv2d_6_weights    (4,18,1,1) (38)  
                                                          W: conv2d_6_bias       (1,1,1,18) (39)  
                                                          O: conv2d_6_output     (1,32,32,18) (4) 
---------------------------------------------------------------------------------------------------
4      conv2d_10        11   conv2d       55314    720    I: conv2d_6_output     (1,32,32,18) (4) 
                                                          W: conv2d_10_weights   (1,18,3,3) (40)  
                                                          W: conv2d_10_bias      (1,1,1,18) (41)  
                                                          O: conv2d_10_output    (1,16,16,18) (5) 
---------------------------------------------------------------------------------------------------
5      conv2d_12        12   conv2d       27654    456    I: conv2d_10_output    (1,16,16,18) (5) 
                                                          W: conv2d_12_weights   (18,6,1,1) (42)  
                                                          W: conv2d_12_bias      (1,1,1,6) (43)   
                                                          O: conv2d_12_output    (1,16,16,6) (6)  
---------------------------------------------------------------------------------------------------
6      conv2d_13        14   conv2d       82980    1008   I: conv2d_12_output    (1,16,16,6) (6)  
                                                          W: conv2d_13_weights   (6,36,1,1) (44)  
                                                          W: conv2d_13_bias      (1,1,1,36) (45)  
                                                          O: conv2d_13_output    (1,16,16,36) (7) 
---------------------------------------------------------------------------------------------------
7      conv2d_15        16   conv2d       110628   1440   I: conv2d_13_output    (1,16,16,36) (7) 
                                                          W: conv2d_15_weights   (1,36,3,3) (46)  
                                                          W: conv2d_15_bias      (1,1,1,36) (47)  
                                                          O: conv2d_15_output    (1,16,16,36) (8) 
---------------------------------------------------------------------------------------------------
8      conv2d_17        17   conv2d       55302    888    I: conv2d_15_output    (1,16,16,36) (8) 
                                                          W: conv2d_17_weights   (36,6,1,1) (48)  
                                                          W: conv2d_17_bias      (1,1,1,6) (49)   
                                                          O: conv2d_17_output    (1,16,16,6) (9)  
---------------------------------------------------------------------------------------------------
9      eltwise_18       18   eltwise      1536     0      I: conv2d_12_output    (1,16,16,6) (6)  
                                                          I: conv2d_17_output    (1,16,16,6) (9)  
                                                          O: eltwise_18_output   (1,16,16,6) (10) 
---------------------------------------------------------------------------------------------------
10     conv2d_19        20   conv2d       41490    504    I: eltwise_18_output   (1,16,16,6) (10) 
                                                          W: conv2d_19_weights   (6,18,1,1) (50)  
                                                          W: conv2d_19_bias      (1,1,1,18) (51)  
                                                          O: conv2d_19_output    (1,16,16,18) (11)
---------------------------------------------------------------------------------------------------
11     pool_8           8    pool         294912   0      I: conv2d_6_output     (1,32,32,18) (4) 
                                                          O: pool_8_output       (1,16,16,18) (12)
---------------------------------------------------------------------------------------------------
12     concat_21        21   concat       0        0      I: pool_8_output       (1,16,16,18) (12)
                                                          I: conv2d_19_output    (1,16,16,18) (11)
                                                          O: concat_21_output    (1,16,16,36) (13)
---------------------------------------------------------------------------------------------------
13     conv2d_22        23   conv2d       239640   3552   I: concat_21_output    (1,16,16,36) (13)
                                                          W: conv2d_22_weights   (36,24,1,1) (52) 
                                                          W: conv2d_22_bias      (1,1,1,24) (53)  
                                                          O: conv2d_22_output    (1,16,16,24) (14)
---------------------------------------------------------------------------------------------------
14     conv2d_26        27   conv2d       18456    960    I: conv2d_22_output    (1,16,16,24) (14)
                                                          W: conv2d_26_weights   (1,24,3,3) (54)  
                                                          W: conv2d_26_bias      (1,1,1,24) (55)  
                                                          O: conv2d_26_output    (1,8,8,24) (15)  
---------------------------------------------------------------------------------------------------
15     conv2d_28        28   conv2d       12296    800    I: conv2d_26_output    (1,8,8,24) (15)  
                                                          W: conv2d_28_weights   (24,8,1,1) (56)  
                                                          W: conv2d_28_bias      (1,1,1,8) (57)   
                                                          O: conv2d_28_output    (1,8,8,8) (16)   
---------------------------------------------------------------------------------------------------
16     conv2d_29        30   conv2d       28200    1440   I: conv2d_28_output    (1,8,8,8) (16)   
                                                          W: conv2d_29_weights   (8,40,1,1) (58)  
                                                          W: conv2d_29_bias      (1,1,1,40) (59)  
                                                          O: conv2d_29_output    (1,8,8,40) (17)  
---------------------------------------------------------------------------------------------------
17     conv2d_31        32   conv2d       30760    1600   I: conv2d_29_output    (1,8,8,40) (17)  
                                                          W: conv2d_31_weights   (1,40,3,3) (60)  
                                                          W: conv2d_31_bias      (1,1,1,40) (61)  
                                                          O: conv2d_31_output    (1,8,8,40) (18)  
---------------------------------------------------------------------------------------------------
18     conv2d_33        33   conv2d       20488    1312   I: conv2d_31_output    (1,8,8,40) (18)  
                                                          W: conv2d_33_weights   (40,8,1,1) (62)  
                                                          W: conv2d_33_bias      (1,1,1,8) (63)   
                                                          O: conv2d_33_output    (1,8,8,8) (19)   
---------------------------------------------------------------------------------------------------
19     eltwise_34       34   eltwise      512      0      I: conv2d_28_output    (1,8,8,8) (16)   
                                                          I: conv2d_33_output    (1,8,8,8) (19)   
                                                          O: eltwise_34_output   (1,8,8,8) (20)   
---------------------------------------------------------------------------------------------------
20     conv2d_35        36   conv2d       28200    1440   I: eltwise_34_output   (1,8,8,8) (20)   
                                                          W: conv2d_35_weights   (8,40,1,1) (64)  
                                                          W: conv2d_35_bias      (1,1,1,40) (65)  
                                                          O: conv2d_35_output    (1,8,8,40) (21)  
---------------------------------------------------------------------------------------------------
21     conv2d_37        38   conv2d       30760    1600   I: conv2d_35_output    (1,8,8,40) (21)  
                                                          W: conv2d_37_weights   (1,40,3,3) (66)  
                                                          W: conv2d_37_bias      (1,1,1,40) (67)  
                                                          O: conv2d_37_output    (1,8,8,40) (22)  
---------------------------------------------------------------------------------------------------
22     conv2d_39        39   conv2d       20488    1312   I: conv2d_37_output    (1,8,8,40) (22)  
                                                          W: conv2d_39_weights   (40,8,1,1) (68)  
                                                          W: conv2d_39_bias      (1,1,1,8) (69)   
                                                          O: conv2d_39_output    (1,8,8,8) (23)   
---------------------------------------------------------------------------------------------------
23     eltwise_40       40   eltwise      512      0      I: eltwise_34_output   (1,8,8,8) (20)   
                                                          I: conv2d_39_output    (1,8,8,8) (23)   
                                                          O: eltwise_40_output   (1,8,8,8) (24)   
---------------------------------------------------------------------------------------------------
24     conv2d_41        42   conv2d       16920    864    I: eltwise_40_output   (1,8,8,8) (24)   
                                                          W: conv2d_41_weights   (8,24,1,1) (70)  
                                                          W: conv2d_41_bias      (1,1,1,24) (71)  
                                                          O: conv2d_41_output    (1,8,8,24) (25)  
---------------------------------------------------------------------------------------------------
25     pool_24          24   pool         24576    0      I: conv2d_22_output    (1,16,16,24) (14)
                                                          O: pool_24_output      (1,8,8,24) (26)  
---------------------------------------------------------------------------------------------------
26     concat_43        43   concat       0        0      I: pool_24_output      (1,8,8,24) (26)  
                                                          I: conv2d_41_output    (1,8,8,24) (25)  
                                                          O: concat_43_output    (1,8,8,48) (27)  
---------------------------------------------------------------------------------------------------
27     conv2d_44        45   conv2d       130600   7840   I: concat_43_output    (1,8,8,48) (27)  
                                                          W: conv2d_44_weights   (48,40,1,1) (72) 
                                                          W: conv2d_44_bias      (1,1,1,40) (73)  
                                                          O: conv2d_44_output    (1,8,8,40) (28)  
---------------------------------------------------------------------------------------------------
28     conv2d_46        47   conv2d       30760    1600   I: conv2d_44_output    (1,8,8,40) (28)  
                                                          W: conv2d_46_weights   (1,40,3,3) (74)  
                                                          W: conv2d_46_bias      (1,1,1,40) (75)  
                                                          O: conv2d_46_output    (1,8,8,40) (29)  
---------------------------------------------------------------------------------------------------
29     conv2d_48        49   conv2d       88096    5248   I: conv2d_46_output    (1,8,8,40) (29)  
                                                          W: conv2d_48_weights   (40,32,1,1) (76) 
                                                          W: conv2d_48_bias      (1,1,1,32) (77)  
                                                          O: conv2d_48_output    (1,8,8,32) (30)  
---------------------------------------------------------------------------------------------------
30     conv2d_50        50   conv2d       36882    2376   I: conv2d_48_output    (1,8,8,32) (30)  
                                                          W: conv2d_50_weights   (32,18,1,1) (78) 
                                                          W: conv2d_50_bias      (1,1,1,18) (79)  
                                                          O: conv2d_50_output    (1,8,8,18) (31)  
---------------------------------------------------------------------------------------------------



Complexity report per layer - macc=1,933,856 weights=38,680 act=122,184 ram_io=4,608
---------------------------------------------------------------------------
id   name         c_macc                    c_rom                     c_id
---------------------------------------------------------------------------
1    conv2d_1     |||||||||||||     12.7%   ||                 2.3%   [0] 
3    conv2d_3     ||||||             5.1%   |                  0.8%   [1] 
5    conv2d_5     ||                 1.7%   |                  0.4%   [2] 
6    conv2d_6     |||||||            6.7%   |                  0.9%   [3] 
8    pool_8       ||||||||||||||||  15.2%   |                  0.0%   [11]
10   conv2d_10    |||                2.9%   ||                 1.9%   [4] 
12   conv2d_12    ||                 1.4%   |                  1.2%   [5] 
13   conv2d_13    |||||              4.3%   ||                 2.6%   [6] 
15   conv2d_15    ||||||             5.7%   |||                3.7%   [7] 
17   conv2d_17    |||                2.9%   ||                 2.3%   [8] 
18   eltwise_18   |                  0.1%   |                  0.0%   [9] 
19   conv2d_19    |||                2.1%   |                  1.3%   [10]
21   concat_21    |                  0.0%   |                  0.0%   [12]
22   conv2d_22    |||||||||||||     12.4%   |||||||            9.2%   [13]
24   pool_24      ||                 1.3%   |                  0.0%   [25]
26   conv2d_26    |                  1.0%   ||                 2.5%   [14]
28   conv2d_28    |                  0.6%   ||                 2.1%   [15]
29   conv2d_29    ||                 1.5%   |||                3.7%   [16]
31   conv2d_31    ||                 1.6%   ||||               4.1%   [17]
33   conv2d_33    ||                 1.1%   |||                3.4%   [18]
34   eltwise_34   |                  0.0%   |                  0.0%   [19]
35   conv2d_35    ||                 1.5%   |||                3.7%   [20]
37   conv2d_37    ||                 1.6%   ||||               4.1%   [21]
39   conv2d_39    ||                 1.1%   |||                3.4%   [22]
40   eltwise_40   |                  0.0%   |                  0.0%   [23]
41   conv2d_41    |                  0.9%   ||                 2.2%   [24]
43   concat_43    |                  0.0%   |                  0.0%   [26]
44   conv2d_44    |||||||            6.8%   ||||||||||||||||  20.3%   [27]
46   conv2d_46    ||                 1.6%   ||||               4.1%   [28]
48   conv2d_48    |||||              4.6%   |||||||||||       13.6%   [29]
50   conv2d_50    ||                 1.9%   |||||              6.1%   [30]

Generated files (5)
---------------------------------------------------------------------
C:\Users\Flash\.stm32cubemx\network_output\network_config.h
C:\Users\Flash\.stm32cubemx\network_output\network.h
C:\Users\Flash\.stm32cubemx\network_output\network.c
C:\Users\Flash\.stm32cubemx\network_output\network_data.h
C:\Users\Flash\.stm32cubemx\network_output\network_data.c
